{"class_name": "Model", "config": {"name": "Xception_QnA", "layers": [{"class_name": "InputLayer", "config": {"batch_input_shape": [null, 386, 1024, 3], "dtype": "float32", "sparse": false, "ragged": false, "name": "input_1"}, "name": "input_1", "inbound_nodes": []}, {"class_name": "Conv2D", "config": {"name": "conv_2d_1xS_0", "trainable": true, "dtype": "float32", "filters": 3, "kernel_size": [1, 1024], "strides": [1, 1], "padding": "valid", "data_format": "channels_last", "dilation_rate": [1, 1], "activation": "relu", "use_bias": true, "kernel_initializer": {"class_name": "GlorotUniform", "config": {"seed": null}}, "bias_initializer": {"class_name": "Constant", "config": {"value": 0.2}}, "kernel_regularizer": null, "bias_regularizer": null, "activity_regularizer": null, "kernel_constraint": null, "bias_constraint": null}, "name": "conv_2d_1xS_0", "inbound_nodes": [[["input_1", 0, 0, {}]]]}, {"class_name": "Conv2D", "config": {"name": "conv_2d_1xS_1", "trainable": true, "dtype": "float32", "filters": 3, "kernel_size": [1, 1024], "strides": [1, 1], "padding": "valid", "data_format": "channels_last", "dilation_rate": [1, 1], "activation": "relu", "use_bias": true, "kernel_initializer": {"class_name": "GlorotUniform", "config": {"seed": null}}, "bias_initializer": {"class_name": "Constant", "config": {"value": 0.2}}, "kernel_regularizer": null, "bias_regularizer": null, "activity_regularizer": null, "kernel_constraint": null, "bias_constraint": null}, "name": "conv_2d_1xS_1", "inbound_nodes": [[["input_1", 0, 0, {}]]]}, {"class_name": "TensorFlowOpLayer", "config": {"name": "concat", "trainable": true, "dtype": "float32", "node_def": {"name": "concat", "op": "ConcatV2", "input": ["conv_2d_1xS_0/Identity", "conv_2d_1xS_1/Identity", "concat/axis"], "attr": {"Tidx": {"type": "DT_INT32"}, "T": {"type": "DT_FLOAT"}, "N": {"i": "2"}}}, "constants": {"2": 2}}, "name": "tf_op_layer_concat", "inbound_nodes": [[["conv_2d_1xS_0", 0, 0, {}], ["conv_2d_1xS_1", 0, 0, {}]]]}, {"class_name": "Conv2D", "config": {"name": "conv_2d_1xS_2", "trainable": true, "dtype": "float32", "filters": 3, "kernel_size": [1, 1024], "strides": [1, 1], "padding": "valid", "data_format": "channels_last", "dilation_rate": [1, 1], "activation": "relu", "use_bias": true, "kernel_initializer": {"class_name": "GlorotUniform", "config": {"seed": null}}, "bias_initializer": {"class_name": "Constant", "config": {"value": 0.2}}, "kernel_regularizer": null, "bias_regularizer": null, "activity_regularizer": null, "kernel_constraint": null, "bias_constraint": null}, "name": "conv_2d_1xS_2", "inbound_nodes": [[["input_1", 0, 0, {}]]]}, {"class_name": "TensorFlowOpLayer", "config": {"name": "concat_1", "trainable": true, "dtype": "float32", "node_def": {"name": "concat_1", "op": "ConcatV2", "input": ["concat", "conv_2d_1xS_2/Identity", "concat_1/axis"], "attr": {"Tidx": {"type": "DT_INT32"}, "T": {"type": "DT_FLOAT"}, "N": {"i": "2"}}}, "constants": {"2": 2}}, "name": "tf_op_layer_concat_1", "inbound_nodes": [[["tf_op_layer_concat", 0, 0, {}], ["conv_2d_1xS_2", 0, 0, {}]]]}, {"class_name": "Conv2D", "config": {"name": "conv_2d_1xS_3", "trainable": true, "dtype": "float32", "filters": 3, "kernel_size": [1, 1024], "strides": [1, 1], "padding": "valid", "data_format": "channels_last", "dilation_rate": [1, 1], "activation": "relu", "use_bias": true, "kernel_initializer": {"class_name": "GlorotUniform", "config": {"seed": null}}, "bias_initializer": {"class_name": "Constant", "config": {"value": 0.2}}, "kernel_regularizer": null, "bias_regularizer": null, "activity_regularizer": null, "kernel_constraint": null, "bias_constraint": null}, "name": "conv_2d_1xS_3", "inbound_nodes": [[["input_1", 0, 0, {}]]]}, {"class_name": "TensorFlowOpLayer", "config": {"name": "concat_2", "trainable": true, "dtype": "float32", "node_def": {"name": "concat_2", "op": "ConcatV2", "input": ["concat_1", "conv_2d_1xS_3/Identity", "concat_2/axis"], "attr": {"Tidx": {"type": "DT_INT32"}, "T": {"type": "DT_FLOAT"}, "N": {"i": "2"}}}, "constants": {"2": 2}}, "name": "tf_op_layer_concat_2", "inbound_nodes": [[["tf_op_layer_concat_1", 0, 0, {}], ["conv_2d_1xS_3", 0, 0, {}]]]}, {"class_name": "Conv2D", "config": {"name": "conv_2d_1xS_4", "trainable": true, "dtype": "float32", "filters": 3, "kernel_size": [1, 1024], "strides": [1, 1], "padding": "valid", "data_format": "channels_last", "dilation_rate": [1, 1], "activation": "relu", "use_bias": true, "kernel_initializer": {"class_name": "GlorotUniform", "config": {"seed": null}}, "bias_initializer": {"class_name": "Constant", "config": {"value": 0.2}}, "kernel_regularizer": null, "bias_regularizer": null, "activity_regularizer": null, "kernel_constraint": null, "bias_constraint": null}, "name": "conv_2d_1xS_4", "inbound_nodes": [[["input_1", 0, 0, {}]]]}, {"class_name": "TensorFlowOpLayer", "config": {"name": "concat_3", "trainable": true, "dtype": "float32", "node_def": {"name": "concat_3", "op": "ConcatV2", "input": ["concat_2", "conv_2d_1xS_4/Identity", "concat_3/axis"], "attr": {"Tidx": {"type": "DT_INT32"}, "T": {"type": "DT_FLOAT"}, "N": {"i": "2"}}}, "constants": {"2": 2}}, "name": "tf_op_layer_concat_3", "inbound_nodes": [[["tf_op_layer_concat_2", 0, 0, {}], ["conv_2d_1xS_4", 0, 0, {}]]]}, {"class_name": "Conv2D", "config": {"name": "conv_2d_1xS_5", "trainable": true, "dtype": "float32", "filters": 3, "kernel_size": [1, 1024], "strides": [1, 1], "padding": "valid", "data_format": "channels_last", "dilation_rate": [1, 1], "activation": "relu", "use_bias": true, "kernel_initializer": {"class_name": "GlorotUniform", "config": {"seed": null}}, "bias_initializer": {"class_name": "Constant", "config": {"value": 0.2}}, "kernel_regularizer": null, "bias_regularizer": null, "activity_regularizer": null, "kernel_constraint": null, "bias_constraint": null}, "name": "conv_2d_1xS_5", "inbound_nodes": [[["input_1", 0, 0, {}]]]}, {"class_name": "TensorFlowOpLayer", "config": {"name": "concat_4", "trainable": true, "dtype": "float32", "node_def": {"name": "concat_4", "op": "ConcatV2", "input": ["concat_3", "conv_2d_1xS_5/Identity", "concat_4/axis"], "attr": {"Tidx": {"type": "DT_INT32"}, "T": {"type": "DT_FLOAT"}, "N": {"i": "2"}}}, "constants": {"2": 2}}, "name": "tf_op_layer_concat_4", "inbound_nodes": [[["tf_op_layer_concat_3", 0, 0, {}], ["conv_2d_1xS_5", 0, 0, {}]]]}, {"class_name": "Conv2D", "config": {"name": "conv_2d_1xS_6", "trainable": true, "dtype": "float32", "filters": 3, "kernel_size": [1, 1024], "strides": [1, 1], "padding": "valid", "data_format": "channels_last", "dilation_rate": [1, 1], "activation": "relu", "use_bias": true, "kernel_initializer": {"class_name": "GlorotUniform", "config": {"seed": null}}, "bias_initializer": {"class_name": "Constant", "config": {"value": 0.2}}, "kernel_regularizer": null, "bias_regularizer": null, "activity_regularizer": null, "kernel_constraint": null, "bias_constraint": null}, "name": "conv_2d_1xS_6", "inbound_nodes": [[["input_1", 0, 0, {}]]]}, {"class_name": "TensorFlowOpLayer", "config": {"name": "concat_5", "trainable": true, "dtype": "float32", "node_def": {"name": "concat_5", "op": "ConcatV2", "input": ["concat_4", "conv_2d_1xS_6/Identity", "concat_5/axis"], "attr": {"Tidx": {"type": "DT_INT32"}, "T": {"type": "DT_FLOAT"}, "N": {"i": "2"}}}, "constants": {"2": 2}}, "name": "tf_op_layer_concat_5", "inbound_nodes": [[["tf_op_layer_concat_4", 0, 0, {}], ["conv_2d_1xS_6", 0, 0, {}]]]}, {"class_name": "Conv2D", "config": {"name": "conv_2d_1xS_7", "trainable": true, "dtype": "float32", "filters": 3, "kernel_size": [1, 1024], "strides": [1, 1], "padding": "valid", "data_format": "channels_last", "dilation_rate": [1, 1], "activation": "relu", "use_bias": true, "kernel_initializer": {"class_name": "GlorotUniform", "config": {"seed": null}}, "bias_initializer": {"class_name": "Constant", "config": {"value": 0.2}}, "kernel_regularizer": null, "bias_regularizer": null, "activity_regularizer": null, "kernel_constraint": null, "bias_constraint": null}, "name": "conv_2d_1xS_7", "inbound_nodes": [[["input_1", 0, 0, {}]]]}, {"class_name": "TensorFlowOpLayer", "config": {"name": "concat_6", "trainable": true, "dtype": "float32", "node_def": {"name": "concat_6", "op": "ConcatV2", "input": ["concat_5", "conv_2d_1xS_7/Identity", "concat_6/axis"], "attr": {"Tidx": {"type": "DT_INT32"}, "T": {"type": "DT_FLOAT"}, "N": {"i": "2"}}}, "constants": {"2": 2}}, "name": "tf_op_layer_concat_6", "inbound_nodes": [[["tf_op_layer_concat_5", 0, 0, {}], ["conv_2d_1xS_7", 0, 0, {}]]]}, {"class_name": "Conv2D", "config": {"name": "conv_2d_1xS_8", "trainable": true, "dtype": "float32", "filters": 3, "kernel_size": [1, 1024], "strides": [1, 1], "padding": "valid", "data_format": "channels_last", "dilation_rate": [1, 1], "activation": "relu", "use_bias": true, "kernel_initializer": {"class_name": "GlorotUniform", "config": {"seed": null}}, "bias_initializer": {"class_name": "Constant", "config": {"value": 0.2}}, "kernel_regularizer": null, "bias_regularizer": null, "activity_regularizer": null, "kernel_constraint": null, "bias_constraint": null}, "name": "conv_2d_1xS_8", "inbound_nodes": [[["input_1", 0, 0, {}]]]}, {"class_name": "TensorFlowOpLayer", "config": {"name": "concat_7", "trainable": true, "dtype": "float32", "node_def": {"name": "concat_7", "op": "ConcatV2", "input": ["concat_6", "conv_2d_1xS_8/Identity", "concat_7/axis"], "attr": {"Tidx": {"type": "DT_INT32"}, "T": {"type": "DT_FLOAT"}, "N": {"i": "2"}}}, "constants": {"2": 2}}, "name": "tf_op_layer_concat_7", "inbound_nodes": [[["tf_op_layer_concat_6", 0, 0, {}], ["conv_2d_1xS_8", 0, 0, {}]]]}, {"class_name": "Conv2D", "config": {"name": "conv_2d_1xS_9", "trainable": true, "dtype": "float32", "filters": 3, "kernel_size": [1, 1024], "strides": [1, 1], "padding": "valid", "data_format": "channels_last", "dilation_rate": [1, 1], "activation": "relu", "use_bias": true, "kernel_initializer": {"class_name": "GlorotUniform", "config": {"seed": null}}, "bias_initializer": {"class_name": "Constant", "config": {"value": 0.2}}, "kernel_regularizer": null, "bias_regularizer": null, "activity_regularizer": null, "kernel_constraint": null, "bias_constraint": null}, "name": "conv_2d_1xS_9", "inbound_nodes": [[["input_1", 0, 0, {}]]]}, {"class_name": "TensorFlowOpLayer", "config": {"name": "concat_8", "trainable": true, "dtype": "float32", "node_def": {"name": "concat_8", "op": "ConcatV2", "input": ["concat_7", "conv_2d_1xS_9/Identity", "concat_8/axis"], "attr": {"Tidx": {"type": "DT_INT32"}, "T": {"type": "DT_FLOAT"}, "N": {"i": "2"}}}, "constants": {"2": 2}}, "name": "tf_op_layer_concat_8", "inbound_nodes": [[["tf_op_layer_concat_7", 0, 0, {}], ["conv_2d_1xS_9", 0, 0, {}]]]}, {"class_name": "Conv2D", "config": {"name": "conv_2d_1xS_10", "trainable": true, "dtype": "float32", "filters": 3, "kernel_size": [1, 1024], "strides": [1, 1], "padding": "valid", "data_format": "channels_last", "dilation_rate": [1, 1], "activation": "relu", "use_bias": true, "kernel_initializer": {"class_name": "GlorotUniform", "config": {"seed": null}}, "bias_initializer": {"class_name": "Constant", "config": {"value": 0.2}}, "kernel_regularizer": null, "bias_regularizer": null, "activity_regularizer": null, "kernel_constraint": null, "bias_constraint": null}, "name": "conv_2d_1xS_10", "inbound_nodes": [[["input_1", 0, 0, {}]]]}, {"class_name": "TensorFlowOpLayer", "config": {"name": "concat_9", "trainable": true, "dtype": "float32", "node_def": {"name": "concat_9", "op": "ConcatV2", "input": ["concat_8", "conv_2d_1xS_10/Identity", "concat_9/axis"], "attr": {"Tidx": {"type": "DT_INT32"}, "T": {"type": "DT_FLOAT"}, "N": {"i": "2"}}}, "constants": {"2": 2}}, "name": "tf_op_layer_concat_9", "inbound_nodes": [[["tf_op_layer_concat_8", 0, 0, {}], ["conv_2d_1xS_10", 0, 0, {}]]]}, {"class_name": "Conv2D", "config": {"name": "conv_2d_1xS_11", "trainable": true, "dtype": "float32", "filters": 3, "kernel_size": [1, 1024], "strides": [1, 1], "padding": "valid", "data_format": "channels_last", "dilation_rate": [1, 1], "activation": "relu", "use_bias": true, "kernel_initializer": {"class_name": "GlorotUniform", "config": {"seed": null}}, "bias_initializer": {"class_name": "Constant", "config": {"value": 0.2}}, "kernel_regularizer": null, "bias_regularizer": null, "activity_regularizer": null, "kernel_constraint": null, "bias_constraint": null}, "name": "conv_2d_1xS_11", "inbound_nodes": [[["input_1", 0, 0, {}]]]}, {"class_name": "TensorFlowOpLayer", "config": {"name": "concat_10", "trainable": true, "dtype": "float32", "node_def": {"name": "concat_10", "op": "ConcatV2", "input": ["concat_9", "conv_2d_1xS_11/Identity", "concat_10/axis"], "attr": {"Tidx": {"type": "DT_INT32"}, "T": {"type": "DT_FLOAT"}, "N": {"i": "2"}}}, "constants": {"2": 2}}, "name": "tf_op_layer_concat_10", "inbound_nodes": [[["tf_op_layer_concat_9", 0, 0, {}], ["conv_2d_1xS_11", 0, 0, {}]]]}, {"class_name": "Conv2D", "config": {"name": "conv_2d_1xS_12", "trainable": true, "dtype": "float32", "filters": 3, "kernel_size": [1, 1024], "strides": [1, 1], "padding": "valid", "data_format": "channels_last", "dilation_rate": [1, 1], "activation": "relu", "use_bias": true, "kernel_initializer": {"class_name": "GlorotUniform", "config": {"seed": null}}, "bias_initializer": {"class_name": "Constant", "config": {"value": 0.2}}, "kernel_regularizer": null, "bias_regularizer": null, "activity_regularizer": null, "kernel_constraint": null, "bias_constraint": null}, "name": "conv_2d_1xS_12", "inbound_nodes": [[["input_1", 0, 0, {}]]]}, {"class_name": "TensorFlowOpLayer", "config": {"name": "concat_11", "trainable": true, "dtype": "float32", "node_def": {"name": "concat_11", "op": "ConcatV2", "input": ["concat_10", "conv_2d_1xS_12/Identity", "concat_11/axis"], "attr": {"Tidx": {"type": "DT_INT32"}, "T": {"type": "DT_FLOAT"}, "N": {"i": "2"}}}, "constants": {"2": 2}}, "name": "tf_op_layer_concat_11", "inbound_nodes": [[["tf_op_layer_concat_10", 0, 0, {}], ["conv_2d_1xS_12", 0, 0, {}]]]}, {"class_name": "Conv2D", "config": {"name": "conv_2d_1xS_13", "trainable": true, "dtype": "float32", "filters": 3, "kernel_size": [1, 1024], "strides": [1, 1], "padding": "valid", "data_format": "channels_last", "dilation_rate": [1, 1], "activation": "relu", "use_bias": true, "kernel_initializer": {"class_name": "GlorotUniform", "config": {"seed": null}}, "bias_initializer": {"class_name": "Constant", "config": {"value": 0.2}}, "kernel_regularizer": null, "bias_regularizer": null, "activity_regularizer": null, "kernel_constraint": null, "bias_constraint": null}, "name": "conv_2d_1xS_13", "inbound_nodes": [[["input_1", 0, 0, {}]]]}, {"class_name": "TensorFlowOpLayer", "config": {"name": "concat_12", "trainable": true, "dtype": "float32", "node_def": {"name": "concat_12", "op": "ConcatV2", "input": ["concat_11", "conv_2d_1xS_13/Identity", "concat_12/axis"], "attr": {"Tidx": {"type": "DT_INT32"}, "T": {"type": "DT_FLOAT"}, "N": {"i": "2"}}}, "constants": {"2": 2}}, "name": "tf_op_layer_concat_12", "inbound_nodes": [[["tf_op_layer_concat_11", 0, 0, {}], ["conv_2d_1xS_13", 0, 0, {}]]]}, {"class_name": "Conv2D", "config": {"name": "conv_2d_1xS_14", "trainable": true, "dtype": "float32", "filters": 3, "kernel_size": [1, 1024], "strides": [1, 1], "padding": "valid", "data_format": "channels_last", "dilation_rate": [1, 1], "activation": "relu", "use_bias": true, "kernel_initializer": {"class_name": "GlorotUniform", "config": {"seed": null}}, "bias_initializer": {"class_name": "Constant", "config": {"value": 0.2}}, "kernel_regularizer": null, "bias_regularizer": null, "activity_regularizer": null, "kernel_constraint": null, "bias_constraint": null}, "name": "conv_2d_1xS_14", "inbound_nodes": [[["input_1", 0, 0, {}]]]}, {"class_name": "TensorFlowOpLayer", "config": {"name": "concat_13", "trainable": true, "dtype": "float32", "node_def": {"name": "concat_13", "op": "ConcatV2", "input": ["concat_12", "conv_2d_1xS_14/Identity", "concat_13/axis"], "attr": {"Tidx": {"type": "DT_INT32"}, "T": {"type": "DT_FLOAT"}, "N": {"i": "2"}}}, "constants": {"2": 2}}, "name": "tf_op_layer_concat_13", "inbound_nodes": [[["tf_op_layer_concat_12", 0, 0, {}], ["conv_2d_1xS_14", 0, 0, {}]]]}, {"class_name": "Conv2D", "config": {"name": "conv_2d_1xS_15", "trainable": true, "dtype": "float32", "filters": 3, "kernel_size": [1, 1024], "strides": [1, 1], "padding": "valid", "data_format": "channels_last", "dilation_rate": [1, 1], "activation": "relu", "use_bias": true, "kernel_initializer": {"class_name": "GlorotUniform", "config": {"seed": null}}, "bias_initializer": {"class_name": "Constant", "config": {"value": 0.2}}, "kernel_regularizer": null, "bias_regularizer": null, "activity_regularizer": null, "kernel_constraint": null, "bias_constraint": null}, "name": "conv_2d_1xS_15", "inbound_nodes": [[["input_1", 0, 0, {}]]]}, {"class_name": "TensorFlowOpLayer", "config": {"name": "concat_14", "trainable": true, "dtype": "float32", "node_def": {"name": "concat_14", "op": "ConcatV2", "input": ["concat_13", "conv_2d_1xS_15/Identity", "concat_14/axis"], "attr": {"Tidx": {"type": "DT_INT32"}, "T": {"type": "DT_FLOAT"}, "N": {"i": "2"}}}, "constants": {"2": 2}}, "name": "tf_op_layer_concat_14", "inbound_nodes": [[["tf_op_layer_concat_13", 0, 0, {}], ["conv_2d_1xS_15", 0, 0, {}]]]}, {"class_name": "Conv2D", "config": {"name": "conv_2d_1xS_16", "trainable": true, "dtype": "float32", "filters": 3, "kernel_size": [1, 1024], "strides": [1, 1], "padding": "valid", "data_format": "channels_last", "dilation_rate": [1, 1], "activation": "relu", "use_bias": true, "kernel_initializer": {"class_name": "GlorotUniform", "config": {"seed": null}}, "bias_initializer": {"class_name": "Constant", "config": {"value": 0.2}}, "kernel_regularizer": null, "bias_regularizer": null, "activity_regularizer": null, "kernel_constraint": null, "bias_constraint": null}, "name": "conv_2d_1xS_16", "inbound_nodes": [[["input_1", 0, 0, {}]]]}, {"class_name": "TensorFlowOpLayer", "config": {"name": "concat_15", "trainable": true, "dtype": "float32", "node_def": {"name": "concat_15", "op": "ConcatV2", "input": ["concat_14", "conv_2d_1xS_16/Identity", "concat_15/axis"], "attr": {"Tidx": {"type": "DT_INT32"}, "T": {"type": "DT_FLOAT"}, "N": {"i": "2"}}}, "constants": {"2": 2}}, "name": "tf_op_layer_concat_15", "inbound_nodes": [[["tf_op_layer_concat_14", 0, 0, {}], ["conv_2d_1xS_16", 0, 0, {}]]]}, {"class_name": "Conv2D", "config": {"name": "conv_2d_1xS_17", "trainable": true, "dtype": "float32", "filters": 3, "kernel_size": [1, 1024], "strides": [1, 1], "padding": "valid", "data_format": "channels_last", "dilation_rate": [1, 1], "activation": "relu", "use_bias": true, "kernel_initializer": {"class_name": "GlorotUniform", "config": {"seed": null}}, "bias_initializer": {"class_name": "Constant", "config": {"value": 0.2}}, "kernel_regularizer": null, "bias_regularizer": null, "activity_regularizer": null, "kernel_constraint": null, "bias_constraint": null}, "name": "conv_2d_1xS_17", "inbound_nodes": [[["input_1", 0, 0, {}]]]}, {"class_name": "TensorFlowOpLayer", "config": {"name": "concat_16", "trainable": true, "dtype": "float32", "node_def": {"name": "concat_16", "op": "ConcatV2", "input": ["concat_15", "conv_2d_1xS_17/Identity", "concat_16/axis"], "attr": {"Tidx": {"type": "DT_INT32"}, "T": {"type": "DT_FLOAT"}, "N": {"i": "2"}}}, "constants": {"2": 2}}, "name": "tf_op_layer_concat_16", "inbound_nodes": [[["tf_op_layer_concat_15", 0, 0, {}], ["conv_2d_1xS_17", 0, 0, {}]]]}, {"class_name": "Conv2D", "config": {"name": "conv_2d_1xS_18", "trainable": true, "dtype": "float32", "filters": 3, "kernel_size": [1, 1024], "strides": [1, 1], "padding": "valid", "data_format": "channels_last", "dilation_rate": [1, 1], "activation": "relu", "use_bias": true, "kernel_initializer": {"class_name": "GlorotUniform", "config": {"seed": null}}, "bias_initializer": {"class_name": "Constant", "config": {"value": 0.2}}, "kernel_regularizer": null, "bias_regularizer": null, "activity_regularizer": null, "kernel_constraint": null, "bias_constraint": null}, "name": "conv_2d_1xS_18", "inbound_nodes": [[["input_1", 0, 0, {}]]]}, {"class_name": "TensorFlowOpLayer", "config": {"name": "concat_17", "trainable": true, "dtype": "float32", "node_def": {"name": "concat_17", "op": "ConcatV2", "input": ["concat_16", "conv_2d_1xS_18/Identity", "concat_17/axis"], "attr": {"Tidx": {"type": "DT_INT32"}, "T": {"type": "DT_FLOAT"}, "N": {"i": "2"}}}, "constants": {"2": 2}}, "name": "tf_op_layer_concat_17", "inbound_nodes": [[["tf_op_layer_concat_16", 0, 0, {}], ["conv_2d_1xS_18", 0, 0, {}]]]}, {"class_name": "Conv2D", "config": {"name": "conv_2d_1xS_19", "trainable": true, "dtype": "float32", "filters": 3, "kernel_size": [1, 1024], "strides": [1, 1], "padding": "valid", "data_format": "channels_last", "dilation_rate": [1, 1], "activation": "relu", "use_bias": true, "kernel_initializer": {"class_name": "GlorotUniform", "config": {"seed": null}}, "bias_initializer": {"class_name": "Constant", "config": {"value": 0.2}}, "kernel_regularizer": null, "bias_regularizer": null, "activity_regularizer": null, "kernel_constraint": null, "bias_constraint": null}, "name": "conv_2d_1xS_19", "inbound_nodes": [[["input_1", 0, 0, {}]]]}, {"class_name": "TensorFlowOpLayer", "config": {"name": "concat_18", "trainable": true, "dtype": "float32", "node_def": {"name": "concat_18", "op": "ConcatV2", "input": ["concat_17", "conv_2d_1xS_19/Identity", "concat_18/axis"], "attr": {"Tidx": {"type": "DT_INT32"}, "T": {"type": "DT_FLOAT"}, "N": {"i": "2"}}}, "constants": {"2": 2}}, "name": "tf_op_layer_concat_18", "inbound_nodes": [[["tf_op_layer_concat_17", 0, 0, {}], ["conv_2d_1xS_19", 0, 0, {}]]]}, {"class_name": "Conv2D", "config": {"name": "conv_2d_1xS_20", "trainable": true, "dtype": "float32", "filters": 3, "kernel_size": [1, 1024], "strides": [1, 1], "padding": "valid", "data_format": "channels_last", "dilation_rate": [1, 1], "activation": "relu", "use_bias": true, "kernel_initializer": {"class_name": "GlorotUniform", "config": {"seed": null}}, "bias_initializer": {"class_name": "Constant", "config": {"value": 0.2}}, "kernel_regularizer": null, "bias_regularizer": null, "activity_regularizer": null, "kernel_constraint": null, "bias_constraint": null}, "name": "conv_2d_1xS_20", "inbound_nodes": [[["input_1", 0, 0, {}]]]}, {"class_name": "TensorFlowOpLayer", "config": {"name": "concat_19", "trainable": true, "dtype": "float32", "node_def": {"name": "concat_19", "op": "ConcatV2", "input": ["concat_18", "conv_2d_1xS_20/Identity", "concat_19/axis"], "attr": {"Tidx": {"type": "DT_INT32"}, "T": {"type": "DT_FLOAT"}, "N": {"i": "2"}}}, "constants": {"2": 2}}, "name": "tf_op_layer_concat_19", "inbound_nodes": [[["tf_op_layer_concat_18", 0, 0, {}], ["conv_2d_1xS_20", 0, 0, {}]]]}, {"class_name": "Conv2D", "config": {"name": "conv_2d_1xS_21", "trainable": true, "dtype": "float32", "filters": 3, "kernel_size": [1, 1024], "strides": [1, 1], "padding": "valid", "data_format": "channels_last", "dilation_rate": [1, 1], "activation": "relu", "use_bias": true, "kernel_initializer": {"class_name": "GlorotUniform", "config": {"seed": null}}, "bias_initializer": {"class_name": "Constant", "config": {"value": 0.2}}, "kernel_regularizer": null, "bias_regularizer": null, "activity_regularizer": null, "kernel_constraint": null, "bias_constraint": null}, "name": "conv_2d_1xS_21", "inbound_nodes": [[["input_1", 0, 0, {}]]]}, {"class_name": "TensorFlowOpLayer", "config": {"name": "concat_20", "trainable": true, "dtype": "float32", "node_def": {"name": "concat_20", "op": "ConcatV2", "input": ["concat_19", "conv_2d_1xS_21/Identity", "concat_20/axis"], "attr": {"Tidx": {"type": "DT_INT32"}, "T": {"type": "DT_FLOAT"}, "N": {"i": "2"}}}, "constants": {"2": 2}}, "name": "tf_op_layer_concat_20", "inbound_nodes": [[["tf_op_layer_concat_19", 0, 0, {}], ["conv_2d_1xS_21", 0, 0, {}]]]}, {"class_name": "Conv2D", "config": {"name": "conv_2d_1xS_22", "trainable": true, "dtype": "float32", "filters": 3, "kernel_size": [1, 1024], "strides": [1, 1], "padding": "valid", "data_format": "channels_last", "dilation_rate": [1, 1], "activation": "relu", "use_bias": true, "kernel_initializer": {"class_name": "GlorotUniform", "config": {"seed": null}}, "bias_initializer": {"class_name": "Constant", "config": {"value": 0.2}}, "kernel_regularizer": null, "bias_regularizer": null, "activity_regularizer": null, "kernel_constraint": null, "bias_constraint": null}, "name": "conv_2d_1xS_22", "inbound_nodes": [[["input_1", 0, 0, {}]]]}, {"class_name": "TensorFlowOpLayer", "config": {"name": "concat_21", "trainable": true, "dtype": "float32", "node_def": {"name": "concat_21", "op": "ConcatV2", "input": ["concat_20", "conv_2d_1xS_22/Identity", "concat_21/axis"], "attr": {"Tidx": {"type": "DT_INT32"}, "T": {"type": "DT_FLOAT"}, "N": {"i": "2"}}}, "constants": {"2": 2}}, "name": "tf_op_layer_concat_21", "inbound_nodes": [[["tf_op_layer_concat_20", 0, 0, {}], ["conv_2d_1xS_22", 0, 0, {}]]]}, {"class_name": "Conv2D", "config": {"name": "conv_2d_1xS_23", "trainable": true, "dtype": "float32", "filters": 3, "kernel_size": [1, 1024], "strides": [1, 1], "padding": "valid", "data_format": "channels_last", "dilation_rate": [1, 1], "activation": "relu", "use_bias": true, "kernel_initializer": {"class_name": "GlorotUniform", "config": {"seed": null}}, "bias_initializer": {"class_name": "Constant", "config": {"value": 0.2}}, "kernel_regularizer": null, "bias_regularizer": null, "activity_regularizer": null, "kernel_constraint": null, "bias_constraint": null}, "name": "conv_2d_1xS_23", "inbound_nodes": [[["input_1", 0, 0, {}]]]}, {"class_name": "TensorFlowOpLayer", "config": {"name": "concat_22", "trainable": true, "dtype": "float32", "node_def": {"name": "concat_22", "op": "ConcatV2", "input": ["concat_21", "conv_2d_1xS_23/Identity", "concat_22/axis"], "attr": {"Tidx": {"type": "DT_INT32"}, "T": {"type": "DT_FLOAT"}, "N": {"i": "2"}}}, "constants": {"2": 2}}, "name": "tf_op_layer_concat_22", "inbound_nodes": [[["tf_op_layer_concat_21", 0, 0, {}], ["conv_2d_1xS_23", 0, 0, {}]]]}, {"class_name": "Conv2D", "config": {"name": "conv_2d_1xS_24", "trainable": true, "dtype": "float32", "filters": 3, "kernel_size": [1, 1024], "strides": [1, 1], "padding": "valid", "data_format": "channels_last", "dilation_rate": [1, 1], "activation": "relu", "use_bias": true, "kernel_initializer": {"class_name": "GlorotUniform", "config": {"seed": null}}, "bias_initializer": {"class_name": "Constant", "config": {"value": 0.2}}, "kernel_regularizer": null, "bias_regularizer": null, "activity_regularizer": null, "kernel_constraint": null, "bias_constraint": null}, "name": "conv_2d_1xS_24", "inbound_nodes": [[["input_1", 0, 0, {}]]]}, {"class_name": "TensorFlowOpLayer", "config": {"name": "concat_23", "trainable": true, "dtype": "float32", "node_def": {"name": "concat_23", "op": "ConcatV2", "input": ["concat_22", "conv_2d_1xS_24/Identity", "concat_23/axis"], "attr": {"Tidx": {"type": "DT_INT32"}, "T": {"type": "DT_FLOAT"}, "N": {"i": "2"}}}, "constants": {"2": 2}}, "name": "tf_op_layer_concat_23", "inbound_nodes": [[["tf_op_layer_concat_22", 0, 0, {}], ["conv_2d_1xS_24", 0, 0, {}]]]}, {"class_name": "Conv2D", "config": {"name": "conv_2d_1xS_25", "trainable": true, "dtype": "float32", "filters": 3, "kernel_size": [1, 1024], "strides": [1, 1], "padding": "valid", "data_format": "channels_last", "dilation_rate": [1, 1], "activation": "relu", "use_bias": true, "kernel_initializer": {"class_name": "GlorotUniform", "config": {"seed": null}}, "bias_initializer": {"class_name": "Constant", "config": {"value": 0.2}}, "kernel_regularizer": null, "bias_regularizer": null, "activity_regularizer": null, "kernel_constraint": null, "bias_constraint": null}, "name": "conv_2d_1xS_25", "inbound_nodes": [[["input_1", 0, 0, {}]]]}, {"class_name": "TensorFlowOpLayer", "config": {"name": "concat_24", "trainable": true, "dtype": "float32", "node_def": {"name": "concat_24", "op": "ConcatV2", "input": ["concat_23", "conv_2d_1xS_25/Identity", "concat_24/axis"], "attr": {"Tidx": {"type": "DT_INT32"}, "T": {"type": "DT_FLOAT"}, "N": {"i": "2"}}}, "constants": {"2": 2}}, "name": "tf_op_layer_concat_24", "inbound_nodes": [[["tf_op_layer_concat_23", 0, 0, {}], ["conv_2d_1xS_25", 0, 0, {}]]]}, {"class_name": "Conv2D", "config": {"name": "conv_2d_1xS_26", "trainable": true, "dtype": "float32", "filters": 3, "kernel_size": [1, 1024], "strides": [1, 1], "padding": "valid", "data_format": "channels_last", "dilation_rate": [1, 1], "activation": "relu", "use_bias": true, "kernel_initializer": {"class_name": "GlorotUniform", "config": {"seed": null}}, "bias_initializer": {"class_name": "Constant", "config": {"value": 0.2}}, "kernel_regularizer": null, "bias_regularizer": null, "activity_regularizer": null, "kernel_constraint": null, "bias_constraint": null}, "name": "conv_2d_1xS_26", "inbound_nodes": [[["input_1", 0, 0, {}]]]}, {"class_name": "TensorFlowOpLayer", "config": {"name": "concat_25", "trainable": true, "dtype": "float32", "node_def": {"name": "concat_25", "op": "ConcatV2", "input": ["concat_24", "conv_2d_1xS_26/Identity", "concat_25/axis"], "attr": {"Tidx": {"type": "DT_INT32"}, "T": {"type": "DT_FLOAT"}, "N": {"i": "2"}}}, "constants": {"2": 2}}, "name": "tf_op_layer_concat_25", "inbound_nodes": [[["tf_op_layer_concat_24", 0, 0, {}], ["conv_2d_1xS_26", 0, 0, {}]]]}, {"class_name": "Conv2D", "config": {"name": "conv_2d_1xS_27", "trainable": true, "dtype": "float32", "filters": 3, "kernel_size": [1, 1024], "strides": [1, 1], "padding": "valid", "data_format": "channels_last", "dilation_rate": [1, 1], "activation": "relu", "use_bias": true, "kernel_initializer": {"class_name": "GlorotUniform", "config": {"seed": null}}, "bias_initializer": {"class_name": "Constant", "config": {"value": 0.2}}, "kernel_regularizer": null, "bias_regularizer": null, "activity_regularizer": null, "kernel_constraint": null, "bias_constraint": null}, "name": "conv_2d_1xS_27", "inbound_nodes": [[["input_1", 0, 0, {}]]]}, {"class_name": "TensorFlowOpLayer", "config": {"name": "concat_26", "trainable": true, "dtype": "float32", "node_def": {"name": "concat_26", "op": "ConcatV2", "input": ["concat_25", "conv_2d_1xS_27/Identity", "concat_26/axis"], "attr": {"Tidx": {"type": "DT_INT32"}, "T": {"type": "DT_FLOAT"}, "N": {"i": "2"}}}, "constants": {"2": 2}}, "name": "tf_op_layer_concat_26", "inbound_nodes": [[["tf_op_layer_concat_25", 0, 0, {}], ["conv_2d_1xS_27", 0, 0, {}]]]}, {"class_name": "Conv2D", "config": {"name": "conv_2d_1xS_28", "trainable": true, "dtype": "float32", "filters": 3, "kernel_size": [1, 1024], "strides": [1, 1], "padding": "valid", "data_format": "channels_last", "dilation_rate": [1, 1], "activation": "relu", "use_bias": true, "kernel_initializer": {"class_name": "GlorotUniform", "config": {"seed": null}}, "bias_initializer": {"class_name": "Constant", "config": {"value": 0.2}}, "kernel_regularizer": null, "bias_regularizer": null, "activity_regularizer": null, "kernel_constraint": null, "bias_constraint": null}, "name": "conv_2d_1xS_28", "inbound_nodes": [[["input_1", 0, 0, {}]]]}, {"class_name": "TensorFlowOpLayer", "config": {"name": "concat_27", "trainable": true, "dtype": "float32", "node_def": {"name": "concat_27", "op": "ConcatV2", "input": ["concat_26", "conv_2d_1xS_28/Identity", "concat_27/axis"], "attr": {"Tidx": {"type": "DT_INT32"}, "T": {"type": "DT_FLOAT"}, "N": {"i": "2"}}}, "constants": {"2": 2}}, "name": "tf_op_layer_concat_27", "inbound_nodes": [[["tf_op_layer_concat_26", 0, 0, {}], ["conv_2d_1xS_28", 0, 0, {}]]]}, {"class_name": "Conv2D", "config": {"name": "conv_2d_1xS_29", "trainable": true, "dtype": "float32", "filters": 3, "kernel_size": [1, 1024], "strides": [1, 1], "padding": "valid", "data_format": "channels_last", "dilation_rate": [1, 1], "activation": "relu", "use_bias": true, "kernel_initializer": {"class_name": "GlorotUniform", "config": {"seed": null}}, "bias_initializer": {"class_name": "Constant", "config": {"value": 0.2}}, "kernel_regularizer": null, "bias_regularizer": null, "activity_regularizer": null, "kernel_constraint": null, "bias_constraint": null}, "name": "conv_2d_1xS_29", "inbound_nodes": [[["input_1", 0, 0, {}]]]}, {"class_name": "TensorFlowOpLayer", "config": {"name": "concat_28", "trainable": true, "dtype": "float32", "node_def": {"name": "concat_28", "op": "ConcatV2", "input": ["concat_27", "conv_2d_1xS_29/Identity", "concat_28/axis"], "attr": {"Tidx": {"type": "DT_INT32"}, "T": {"type": "DT_FLOAT"}, "N": {"i": "2"}}}, "constants": {"2": 2}}, "name": "tf_op_layer_concat_28", "inbound_nodes": [[["tf_op_layer_concat_27", 0, 0, {}], ["conv_2d_1xS_29", 0, 0, {}]]]}, {"class_name": "Conv2D", "config": {"name": "conv_2d_1xS_30", "trainable": true, "dtype": "float32", "filters": 3, "kernel_size": [1, 1024], "strides": [1, 1], "padding": "valid", "data_format": "channels_last", "dilation_rate": [1, 1], "activation": "relu", "use_bias": true, "kernel_initializer": {"class_name": "GlorotUniform", "config": {"seed": null}}, "bias_initializer": {"class_name": "Constant", "config": {"value": 0.2}}, "kernel_regularizer": null, "bias_regularizer": null, "activity_regularizer": null, "kernel_constraint": null, "bias_constraint": null}, "name": "conv_2d_1xS_30", "inbound_nodes": [[["input_1", 0, 0, {}]]]}, {"class_name": "TensorFlowOpLayer", "config": {"name": "concat_29", "trainable": true, "dtype": "float32", "node_def": {"name": "concat_29", "op": "ConcatV2", "input": ["concat_28", "conv_2d_1xS_30/Identity", "concat_29/axis"], "attr": {"Tidx": {"type": "DT_INT32"}, "T": {"type": "DT_FLOAT"}, "N": {"i": "2"}}}, "constants": {"2": 2}}, "name": "tf_op_layer_concat_29", "inbound_nodes": [[["tf_op_layer_concat_28", 0, 0, {}], ["conv_2d_1xS_30", 0, 0, {}]]]}, {"class_name": "Conv2D", "config": {"name": "conv_2d_1xS_31", "trainable": true, "dtype": "float32", "filters": 3, "kernel_size": [1, 1024], "strides": [1, 1], "padding": "valid", "data_format": "channels_last", "dilation_rate": [1, 1], "activation": "relu", "use_bias": true, "kernel_initializer": {"class_name": "GlorotUniform", "config": {"seed": null}}, "bias_initializer": {"class_name": "Constant", "config": {"value": 0.2}}, "kernel_regularizer": null, "bias_regularizer": null, "activity_regularizer": null, "kernel_constraint": null, "bias_constraint": null}, "name": "conv_2d_1xS_31", "inbound_nodes": [[["input_1", 0, 0, {}]]]}, {"class_name": "TensorFlowOpLayer", "config": {"name": "concat_30", "trainable": true, "dtype": "float32", "node_def": {"name": "concat_30", "op": "ConcatV2", "input": ["concat_29", "conv_2d_1xS_31/Identity", "concat_30/axis"], "attr": {"Tidx": {"type": "DT_INT32"}, "T": {"type": "DT_FLOAT"}, "N": {"i": "2"}}}, "constants": {"2": 2}}, "name": "tf_op_layer_concat_30", "inbound_nodes": [[["tf_op_layer_concat_29", 0, 0, {}], ["conv_2d_1xS_31", 0, 0, {}]]]}, {"class_name": "Conv2D", "config": {"name": "conv_2d_1xS_32", "trainable": true, "dtype": "float32", "filters": 3, "kernel_size": [1, 1024], "strides": [1, 1], "padding": "valid", "data_format": "channels_last", "dilation_rate": [1, 1], "activation": "relu", "use_bias": true, "kernel_initializer": {"class_name": "GlorotUniform", "config": {"seed": null}}, "bias_initializer": {"class_name": "Constant", "config": {"value": 0.2}}, "kernel_regularizer": null, "bias_regularizer": null, "activity_regularizer": null, "kernel_constraint": null, "bias_constraint": null}, "name": "conv_2d_1xS_32", "inbound_nodes": [[["input_1", 0, 0, {}]]]}, {"class_name": "TensorFlowOpLayer", "config": {"name": "concat_31", "trainable": true, "dtype": "float32", "node_def": {"name": "concat_31", "op": "ConcatV2", "input": ["concat_30", "conv_2d_1xS_32/Identity", "concat_31/axis"], "attr": {"Tidx": {"type": "DT_INT32"}, "T": {"type": "DT_FLOAT"}, "N": {"i": "2"}}}, "constants": {"2": 2}}, "name": "tf_op_layer_concat_31", "inbound_nodes": [[["tf_op_layer_concat_30", 0, 0, {}], ["conv_2d_1xS_32", 0, 0, {}]]]}, {"class_name": "Conv2D", "config": {"name": "conv_2d_1xS_33", "trainable": true, "dtype": "float32", "filters": 3, "kernel_size": [1, 1024], "strides": [1, 1], "padding": "valid", "data_format": "channels_last", "dilation_rate": [1, 1], "activation": "relu", "use_bias": true, "kernel_initializer": {"class_name": "GlorotUniform", "config": {"seed": null}}, "bias_initializer": {"class_name": "Constant", "config": {"value": 0.2}}, "kernel_regularizer": null, "bias_regularizer": null, "activity_regularizer": null, "kernel_constraint": null, "bias_constraint": null}, "name": "conv_2d_1xS_33", "inbound_nodes": [[["input_1", 0, 0, {}]]]}, {"class_name": "TensorFlowOpLayer", "config": {"name": "concat_32", "trainable": true, "dtype": "float32", "node_def": {"name": "concat_32", "op": "ConcatV2", "input": ["concat_31", "conv_2d_1xS_33/Identity", "concat_32/axis"], "attr": {"Tidx": {"type": "DT_INT32"}, "T": {"type": "DT_FLOAT"}, "N": {"i": "2"}}}, "constants": {"2": 2}}, "name": "tf_op_layer_concat_32", "inbound_nodes": [[["tf_op_layer_concat_31", 0, 0, {}], ["conv_2d_1xS_33", 0, 0, {}]]]}, {"class_name": "Conv2D", "config": {"name": "conv_2d_1xS_34", "trainable": true, "dtype": "float32", "filters": 3, "kernel_size": [1, 1024], "strides": [1, 1], "padding": "valid", "data_format": "channels_last", "dilation_rate": [1, 1], "activation": "relu", "use_bias": true, "kernel_initializer": {"class_name": "GlorotUniform", "config": {"seed": null}}, "bias_initializer": {"class_name": "Constant", "config": {"value": 0.2}}, "kernel_regularizer": null, "bias_regularizer": null, "activity_regularizer": null, "kernel_constraint": null, "bias_constraint": null}, "name": "conv_2d_1xS_34", "inbound_nodes": [[["input_1", 0, 0, {}]]]}, {"class_name": "TensorFlowOpLayer", "config": {"name": "concat_33", "trainable": true, "dtype": "float32", "node_def": {"name": "concat_33", "op": "ConcatV2", "input": ["concat_32", "conv_2d_1xS_34/Identity", "concat_33/axis"], "attr": {"Tidx": {"type": "DT_INT32"}, "T": {"type": "DT_FLOAT"}, "N": {"i": "2"}}}, "constants": {"2": 2}}, "name": "tf_op_layer_concat_33", "inbound_nodes": [[["tf_op_layer_concat_32", 0, 0, {}], ["conv_2d_1xS_34", 0, 0, {}]]]}, {"class_name": "Conv2D", "config": {"name": "conv_2d_1xS_35", "trainable": true, "dtype": "float32", "filters": 3, "kernel_size": [1, 1024], "strides": [1, 1], "padding": "valid", "data_format": "channels_last", "dilation_rate": [1, 1], "activation": "relu", "use_bias": true, "kernel_initializer": {"class_name": "GlorotUniform", "config": {"seed": null}}, "bias_initializer": {"class_name": "Constant", "config": {"value": 0.2}}, "kernel_regularizer": null, "bias_regularizer": null, "activity_regularizer": null, "kernel_constraint": null, "bias_constraint": null}, "name": "conv_2d_1xS_35", "inbound_nodes": [[["input_1", 0, 0, {}]]]}, {"class_name": "TensorFlowOpLayer", "config": {"name": "concat_34", "trainable": true, "dtype": "float32", "node_def": {"name": "concat_34", "op": "ConcatV2", "input": ["concat_33", "conv_2d_1xS_35/Identity", "concat_34/axis"], "attr": {"Tidx": {"type": "DT_INT32"}, "T": {"type": "DT_FLOAT"}, "N": {"i": "2"}}}, "constants": {"2": 2}}, "name": "tf_op_layer_concat_34", "inbound_nodes": [[["tf_op_layer_concat_33", 0, 0, {}], ["conv_2d_1xS_35", 0, 0, {}]]]}, {"class_name": "Conv2D", "config": {"name": "conv_2d_1xS_36", "trainable": true, "dtype": "float32", "filters": 3, "kernel_size": [1, 1024], "strides": [1, 1], "padding": "valid", "data_format": "channels_last", "dilation_rate": [1, 1], "activation": "relu", "use_bias": true, "kernel_initializer": {"class_name": "GlorotUniform", "config": {"seed": null}}, "bias_initializer": {"class_name": "Constant", "config": {"value": 0.2}}, "kernel_regularizer": null, "bias_regularizer": null, "activity_regularizer": null, "kernel_constraint": null, "bias_constraint": null}, "name": "conv_2d_1xS_36", "inbound_nodes": [[["input_1", 0, 0, {}]]]}, {"class_name": "TensorFlowOpLayer", "config": {"name": "concat_35", "trainable": true, "dtype": "float32", "node_def": {"name": "concat_35", "op": "ConcatV2", "input": ["concat_34", "conv_2d_1xS_36/Identity", "concat_35/axis"], "attr": {"Tidx": {"type": "DT_INT32"}, "T": {"type": "DT_FLOAT"}, "N": {"i": "2"}}}, "constants": {"2": 2}}, "name": "tf_op_layer_concat_35", "inbound_nodes": [[["tf_op_layer_concat_34", 0, 0, {}], ["conv_2d_1xS_36", 0, 0, {}]]]}, {"class_name": "Conv2D", "config": {"name": "conv_2d_1xS_37", "trainable": true, "dtype": "float32", "filters": 3, "kernel_size": [1, 1024], "strides": [1, 1], "padding": "valid", "data_format": "channels_last", "dilation_rate": [1, 1], "activation": "relu", "use_bias": true, "kernel_initializer": {"class_name": "GlorotUniform", "config": {"seed": null}}, "bias_initializer": {"class_name": "Constant", "config": {"value": 0.2}}, "kernel_regularizer": null, "bias_regularizer": null, "activity_regularizer": null, "kernel_constraint": null, "bias_constraint": null}, "name": "conv_2d_1xS_37", "inbound_nodes": [[["input_1", 0, 0, {}]]]}, {"class_name": "TensorFlowOpLayer", "config": {"name": "concat_36", "trainable": true, "dtype": "float32", "node_def": {"name": "concat_36", "op": "ConcatV2", "input": ["concat_35", "conv_2d_1xS_37/Identity", "concat_36/axis"], "attr": {"Tidx": {"type": "DT_INT32"}, "T": {"type": "DT_FLOAT"}, "N": {"i": "2"}}}, "constants": {"2": 2}}, "name": "tf_op_layer_concat_36", "inbound_nodes": [[["tf_op_layer_concat_35", 0, 0, {}], ["conv_2d_1xS_37", 0, 0, {}]]]}, {"class_name": "Conv2D", "config": {"name": "conv_2d_1xS_38", "trainable": true, "dtype": "float32", "filters": 3, "kernel_size": [1, 1024], "strides": [1, 1], "padding": "valid", "data_format": "channels_last", "dilation_rate": [1, 1], "activation": "relu", "use_bias": true, "kernel_initializer": {"class_name": "GlorotUniform", "config": {"seed": null}}, "bias_initializer": {"class_name": "Constant", "config": {"value": 0.2}}, "kernel_regularizer": null, "bias_regularizer": null, "activity_regularizer": null, "kernel_constraint": null, "bias_constraint": null}, "name": "conv_2d_1xS_38", "inbound_nodes": [[["input_1", 0, 0, {}]]]}, {"class_name": "TensorFlowOpLayer", "config": {"name": "concat_37", "trainable": true, "dtype": "float32", "node_def": {"name": "concat_37", "op": "ConcatV2", "input": ["concat_36", "conv_2d_1xS_38/Identity", "concat_37/axis"], "attr": {"Tidx": {"type": "DT_INT32"}, "T": {"type": "DT_FLOAT"}, "N": {"i": "2"}}}, "constants": {"2": 2}}, "name": "tf_op_layer_concat_37", "inbound_nodes": [[["tf_op_layer_concat_36", 0, 0, {}], ["conv_2d_1xS_38", 0, 0, {}]]]}, {"class_name": "Conv2D", "config": {"name": "conv_2d_1xS_39", "trainable": true, "dtype": "float32", "filters": 3, "kernel_size": [1, 1024], "strides": [1, 1], "padding": "valid", "data_format": "channels_last", "dilation_rate": [1, 1], "activation": "relu", "use_bias": true, "kernel_initializer": {"class_name": "GlorotUniform", "config": {"seed": null}}, "bias_initializer": {"class_name": "Constant", "config": {"value": 0.2}}, "kernel_regularizer": null, "bias_regularizer": null, "activity_regularizer": null, "kernel_constraint": null, "bias_constraint": null}, "name": "conv_2d_1xS_39", "inbound_nodes": [[["input_1", 0, 0, {}]]]}, {"class_name": "TensorFlowOpLayer", "config": {"name": "concat_38", "trainable": true, "dtype": "float32", "node_def": {"name": "concat_38", "op": "ConcatV2", "input": ["concat_37", "conv_2d_1xS_39/Identity", "concat_38/axis"], "attr": {"Tidx": {"type": "DT_INT32"}, "T": {"type": "DT_FLOAT"}, "N": {"i": "2"}}}, "constants": {"2": 2}}, "name": "tf_op_layer_concat_38", "inbound_nodes": [[["tf_op_layer_concat_37", 0, 0, {}], ["conv_2d_1xS_39", 0, 0, {}]]]}, {"class_name": "Conv2D", "config": {"name": "conv_2d_1xS_40", "trainable": true, "dtype": "float32", "filters": 3, "kernel_size": [1, 1024], "strides": [1, 1], "padding": "valid", "data_format": "channels_last", "dilation_rate": [1, 1], "activation": "relu", "use_bias": true, "kernel_initializer": {"class_name": "GlorotUniform", "config": {"seed": null}}, "bias_initializer": {"class_name": "Constant", "config": {"value": 0.2}}, "kernel_regularizer": null, "bias_regularizer": null, "activity_regularizer": null, "kernel_constraint": null, "bias_constraint": null}, "name": "conv_2d_1xS_40", "inbound_nodes": [[["input_1", 0, 0, {}]]]}, {"class_name": "TensorFlowOpLayer", "config": {"name": "concat_39", "trainable": true, "dtype": "float32", "node_def": {"name": "concat_39", "op": "ConcatV2", "input": ["concat_38", "conv_2d_1xS_40/Identity", "concat_39/axis"], "attr": {"Tidx": {"type": "DT_INT32"}, "T": {"type": "DT_FLOAT"}, "N": {"i": "2"}}}, "constants": {"2": 2}}, "name": "tf_op_layer_concat_39", "inbound_nodes": [[["tf_op_layer_concat_38", 0, 0, {}], ["conv_2d_1xS_40", 0, 0, {}]]]}, {"class_name": "Conv2D", "config": {"name": "conv_2d_1xS_41", "trainable": true, "dtype": "float32", "filters": 3, "kernel_size": [1, 1024], "strides": [1, 1], "padding": "valid", "data_format": "channels_last", "dilation_rate": [1, 1], "activation": "relu", "use_bias": true, "kernel_initializer": {"class_name": "GlorotUniform", "config": {"seed": null}}, "bias_initializer": {"class_name": "Constant", "config": {"value": 0.2}}, "kernel_regularizer": null, "bias_regularizer": null, "activity_regularizer": null, "kernel_constraint": null, "bias_constraint": null}, "name": "conv_2d_1xS_41", "inbound_nodes": [[["input_1", 0, 0, {}]]]}, {"class_name": "TensorFlowOpLayer", "config": {"name": "concat_40", "trainable": true, "dtype": "float32", "node_def": {"name": "concat_40", "op": "ConcatV2", "input": ["concat_39", "conv_2d_1xS_41/Identity", "concat_40/axis"], "attr": {"Tidx": {"type": "DT_INT32"}, "T": {"type": "DT_FLOAT"}, "N": {"i": "2"}}}, "constants": {"2": 2}}, "name": "tf_op_layer_concat_40", "inbound_nodes": [[["tf_op_layer_concat_39", 0, 0, {}], ["conv_2d_1xS_41", 0, 0, {}]]]}, {"class_name": "Conv2D", "config": {"name": "conv_2d_1xS_42", "trainable": true, "dtype": "float32", "filters": 3, "kernel_size": [1, 1024], "strides": [1, 1], "padding": "valid", "data_format": "channels_last", "dilation_rate": [1, 1], "activation": "relu", "use_bias": true, "kernel_initializer": {"class_name": "GlorotUniform", "config": {"seed": null}}, "bias_initializer": {"class_name": "Constant", "config": {"value": 0.2}}, "kernel_regularizer": null, "bias_regularizer": null, "activity_regularizer": null, "kernel_constraint": null, "bias_constraint": null}, "name": "conv_2d_1xS_42", "inbound_nodes": [[["input_1", 0, 0, {}]]]}, {"class_name": "TensorFlowOpLayer", "config": {"name": "concat_41", "trainable": true, "dtype": "float32", "node_def": {"name": "concat_41", "op": "ConcatV2", "input": ["concat_40", "conv_2d_1xS_42/Identity", "concat_41/axis"], "attr": {"Tidx": {"type": "DT_INT32"}, "T": {"type": "DT_FLOAT"}, "N": {"i": "2"}}}, "constants": {"2": 2}}, "name": "tf_op_layer_concat_41", "inbound_nodes": [[["tf_op_layer_concat_40", 0, 0, {}], ["conv_2d_1xS_42", 0, 0, {}]]]}, {"class_name": "Conv2D", "config": {"name": "conv_2d_1xS_43", "trainable": true, "dtype": "float32", "filters": 3, "kernel_size": [1, 1024], "strides": [1, 1], "padding": "valid", "data_format": "channels_last", "dilation_rate": [1, 1], "activation": "relu", "use_bias": true, "kernel_initializer": {"class_name": "GlorotUniform", "config": {"seed": null}}, "bias_initializer": {"class_name": "Constant", "config": {"value": 0.2}}, "kernel_regularizer": null, "bias_regularizer": null, "activity_regularizer": null, "kernel_constraint": null, "bias_constraint": null}, "name": "conv_2d_1xS_43", "inbound_nodes": [[["input_1", 0, 0, {}]]]}, {"class_name": "TensorFlowOpLayer", "config": {"name": "concat_42", "trainable": true, "dtype": "float32", "node_def": {"name": "concat_42", "op": "ConcatV2", "input": ["concat_41", "conv_2d_1xS_43/Identity", "concat_42/axis"], "attr": {"Tidx": {"type": "DT_INT32"}, "T": {"type": "DT_FLOAT"}, "N": {"i": "2"}}}, "constants": {"2": 2}}, "name": "tf_op_layer_concat_42", "inbound_nodes": [[["tf_op_layer_concat_41", 0, 0, {}], ["conv_2d_1xS_43", 0, 0, {}]]]}, {"class_name": "Conv2D", "config": {"name": "conv_2d_1xS_44", "trainable": true, "dtype": "float32", "filters": 3, "kernel_size": [1, 1024], "strides": [1, 1], "padding": "valid", "data_format": "channels_last", "dilation_rate": [1, 1], "activation": "relu", "use_bias": true, "kernel_initializer": {"class_name": "GlorotUniform", "config": {"seed": null}}, "bias_initializer": {"class_name": "Constant", "config": {"value": 0.2}}, "kernel_regularizer": null, "bias_regularizer": null, "activity_regularizer": null, "kernel_constraint": null, "bias_constraint": null}, "name": "conv_2d_1xS_44", "inbound_nodes": [[["input_1", 0, 0, {}]]]}, {"class_name": "TensorFlowOpLayer", "config": {"name": "concat_43", "trainable": true, "dtype": "float32", "node_def": {"name": "concat_43", "op": "ConcatV2", "input": ["concat_42", "conv_2d_1xS_44/Identity", "concat_43/axis"], "attr": {"Tidx": {"type": "DT_INT32"}, "T": {"type": "DT_FLOAT"}, "N": {"i": "2"}}}, "constants": {"2": 2}}, "name": "tf_op_layer_concat_43", "inbound_nodes": [[["tf_op_layer_concat_42", 0, 0, {}], ["conv_2d_1xS_44", 0, 0, {}]]]}, {"class_name": "Conv2D", "config": {"name": "conv_2d_1xS_45", "trainable": true, "dtype": "float32", "filters": 3, "kernel_size": [1, 1024], "strides": [1, 1], "padding": "valid", "data_format": "channels_last", "dilation_rate": [1, 1], "activation": "relu", "use_bias": true, "kernel_initializer": {"class_name": "GlorotUniform", "config": {"seed": null}}, "bias_initializer": {"class_name": "Constant", "config": {"value": 0.2}}, "kernel_regularizer": null, "bias_regularizer": null, "activity_regularizer": null, "kernel_constraint": null, "bias_constraint": null}, "name": "conv_2d_1xS_45", "inbound_nodes": [[["input_1", 0, 0, {}]]]}, {"class_name": "TensorFlowOpLayer", "config": {"name": "concat_44", "trainable": true, "dtype": "float32", "node_def": {"name": "concat_44", "op": "ConcatV2", "input": ["concat_43", "conv_2d_1xS_45/Identity", "concat_44/axis"], "attr": {"Tidx": {"type": "DT_INT32"}, "T": {"type": "DT_FLOAT"}, "N": {"i": "2"}}}, "constants": {"2": 2}}, "name": "tf_op_layer_concat_44", "inbound_nodes": [[["tf_op_layer_concat_43", 0, 0, {}], ["conv_2d_1xS_45", 0, 0, {}]]]}, {"class_name": "Conv2D", "config": {"name": "conv_2d_1xS_46", "trainable": true, "dtype": "float32", "filters": 3, "kernel_size": [1, 1024], "strides": [1, 1], "padding": "valid", "data_format": "channels_last", "dilation_rate": [1, 1], "activation": "relu", "use_bias": true, "kernel_initializer": {"class_name": "GlorotUniform", "config": {"seed": null}}, "bias_initializer": {"class_name": "Constant", "config": {"value": 0.2}}, "kernel_regularizer": null, "bias_regularizer": null, "activity_regularizer": null, "kernel_constraint": null, "bias_constraint": null}, "name": "conv_2d_1xS_46", "inbound_nodes": [[["input_1", 0, 0, {}]]]}, {"class_name": "TensorFlowOpLayer", "config": {"name": "concat_45", "trainable": true, "dtype": "float32", "node_def": {"name": "concat_45", "op": "ConcatV2", "input": ["concat_44", "conv_2d_1xS_46/Identity", "concat_45/axis"], "attr": {"Tidx": {"type": "DT_INT32"}, "T": {"type": "DT_FLOAT"}, "N": {"i": "2"}}}, "constants": {"2": 2}}, "name": "tf_op_layer_concat_45", "inbound_nodes": [[["tf_op_layer_concat_44", 0, 0, {}], ["conv_2d_1xS_46", 0, 0, {}]]]}, {"class_name": "Conv2D", "config": {"name": "conv_2d_1xS_47", "trainable": true, "dtype": "float32", "filters": 3, "kernel_size": [1, 1024], "strides": [1, 1], "padding": "valid", "data_format": "channels_last", "dilation_rate": [1, 1], "activation": "relu", "use_bias": true, "kernel_initializer": {"class_name": "GlorotUniform", "config": {"seed": null}}, "bias_initializer": {"class_name": "Constant", "config": {"value": 0.2}}, "kernel_regularizer": null, "bias_regularizer": null, "activity_regularizer": null, "kernel_constraint": null, "bias_constraint": null}, "name": "conv_2d_1xS_47", "inbound_nodes": [[["input_1", 0, 0, {}]]]}, {"class_name": "TensorFlowOpLayer", "config": {"name": "concat_46", "trainable": true, "dtype": "float32", "node_def": {"name": "concat_46", "op": "ConcatV2", "input": ["concat_45", "conv_2d_1xS_47/Identity", "concat_46/axis"], "attr": {"Tidx": {"type": "DT_INT32"}, "T": {"type": "DT_FLOAT"}, "N": {"i": "2"}}}, "constants": {"2": 2}}, "name": "tf_op_layer_concat_46", "inbound_nodes": [[["tf_op_layer_concat_45", 0, 0, {}], ["conv_2d_1xS_47", 0, 0, {}]]]}, {"class_name": "Conv2D", "config": {"name": "conv_2d_1xS_48", "trainable": true, "dtype": "float32", "filters": 3, "kernel_size": [1, 1024], "strides": [1, 1], "padding": "valid", "data_format": "channels_last", "dilation_rate": [1, 1], "activation": "relu", "use_bias": true, "kernel_initializer": {"class_name": "GlorotUniform", "config": {"seed": null}}, "bias_initializer": {"class_name": "Constant", "config": {"value": 0.2}}, "kernel_regularizer": null, "bias_regularizer": null, "activity_regularizer": null, "kernel_constraint": null, "bias_constraint": null}, "name": "conv_2d_1xS_48", "inbound_nodes": [[["input_1", 0, 0, {}]]]}, {"class_name": "TensorFlowOpLayer", "config": {"name": "concat_47", "trainable": true, "dtype": "float32", "node_def": {"name": "concat_47", "op": "ConcatV2", "input": ["concat_46", "conv_2d_1xS_48/Identity", "concat_47/axis"], "attr": {"Tidx": {"type": "DT_INT32"}, "T": {"type": "DT_FLOAT"}, "N": {"i": "2"}}}, "constants": {"2": 2}}, "name": "tf_op_layer_concat_47", "inbound_nodes": [[["tf_op_layer_concat_46", 0, 0, {}], ["conv_2d_1xS_48", 0, 0, {}]]]}, {"class_name": "Conv2D", "config": {"name": "conv_2d_1xS_49", "trainable": true, "dtype": "float32", "filters": 3, "kernel_size": [1, 1024], "strides": [1, 1], "padding": "valid", "data_format": "channels_last", "dilation_rate": [1, 1], "activation": "relu", "use_bias": true, "kernel_initializer": {"class_name": "GlorotUniform", "config": {"seed": null}}, "bias_initializer": {"class_name": "Constant", "config": {"value": 0.2}}, "kernel_regularizer": null, "bias_regularizer": null, "activity_regularizer": null, "kernel_constraint": null, "bias_constraint": null}, "name": "conv_2d_1xS_49", "inbound_nodes": [[["input_1", 0, 0, {}]]]}, {"class_name": "TensorFlowOpLayer", "config": {"name": "concat_48", "trainable": true, "dtype": "float32", "node_def": {"name": "concat_48", "op": "ConcatV2", "input": ["concat_47", "conv_2d_1xS_49/Identity", "concat_48/axis"], "attr": {"Tidx": {"type": "DT_INT32"}, "T": {"type": "DT_FLOAT"}, "N": {"i": "2"}}}, "constants": {"2": 2}}, "name": "tf_op_layer_concat_48", "inbound_nodes": [[["tf_op_layer_concat_47", 0, 0, {}], ["conv_2d_1xS_49", 0, 0, {}]]]}, {"class_name": "Conv2D", "config": {"name": "conv_2d_1xS_50", "trainable": true, "dtype": "float32", "filters": 3, "kernel_size": [1, 1024], "strides": [1, 1], "padding": "valid", "data_format": "channels_last", "dilation_rate": [1, 1], "activation": "relu", "use_bias": true, "kernel_initializer": {"class_name": "GlorotUniform", "config": {"seed": null}}, "bias_initializer": {"class_name": "Constant", "config": {"value": 0.2}}, "kernel_regularizer": null, "bias_regularizer": null, "activity_regularizer": null, "kernel_constraint": null, "bias_constraint": null}, "name": "conv_2d_1xS_50", "inbound_nodes": [[["input_1", 0, 0, {}]]]}, {"class_name": "TensorFlowOpLayer", "config": {"name": "concat_49", "trainable": true, "dtype": "float32", "node_def": {"name": "concat_49", "op": "ConcatV2", "input": ["concat_48", "conv_2d_1xS_50/Identity", "concat_49/axis"], "attr": {"Tidx": {"type": "DT_INT32"}, "T": {"type": "DT_FLOAT"}, "N": {"i": "2"}}}, "constants": {"2": 2}}, "name": "tf_op_layer_concat_49", "inbound_nodes": [[["tf_op_layer_concat_48", 0, 0, {}], ["conv_2d_1xS_50", 0, 0, {}]]]}, {"class_name": "Conv2D", "config": {"name": "conv_2d_1xS_51", "trainable": true, "dtype": "float32", "filters": 3, "kernel_size": [1, 1024], "strides": [1, 1], "padding": "valid", "data_format": "channels_last", "dilation_rate": [1, 1], "activation": "relu", "use_bias": true, "kernel_initializer": {"class_name": "GlorotUniform", "config": {"seed": null}}, "bias_initializer": {"class_name": "Constant", "config": {"value": 0.2}}, "kernel_regularizer": null, "bias_regularizer": null, "activity_regularizer": null, "kernel_constraint": null, "bias_constraint": null}, "name": "conv_2d_1xS_51", "inbound_nodes": [[["input_1", 0, 0, {}]]]}, {"class_name": "TensorFlowOpLayer", "config": {"name": "concat_50", "trainable": true, "dtype": "float32", "node_def": {"name": "concat_50", "op": "ConcatV2", "input": ["concat_49", "conv_2d_1xS_51/Identity", "concat_50/axis"], "attr": {"Tidx": {"type": "DT_INT32"}, "T": {"type": "DT_FLOAT"}, "N": {"i": "2"}}}, "constants": {"2": 2}}, "name": "tf_op_layer_concat_50", "inbound_nodes": [[["tf_op_layer_concat_49", 0, 0, {}], ["conv_2d_1xS_51", 0, 0, {}]]]}, {"class_name": "Conv2D", "config": {"name": "conv_2d_1xS_52", "trainable": true, "dtype": "float32", "filters": 3, "kernel_size": [1, 1024], "strides": [1, 1], "padding": "valid", "data_format": "channels_last", "dilation_rate": [1, 1], "activation": "relu", "use_bias": true, "kernel_initializer": {"class_name": "GlorotUniform", "config": {"seed": null}}, "bias_initializer": {"class_name": "Constant", "config": {"value": 0.2}}, "kernel_regularizer": null, "bias_regularizer": null, "activity_regularizer": null, "kernel_constraint": null, "bias_constraint": null}, "name": "conv_2d_1xS_52", "inbound_nodes": [[["input_1", 0, 0, {}]]]}, {"class_name": "TensorFlowOpLayer", "config": {"name": "concat_51", "trainable": true, "dtype": "float32", "node_def": {"name": "concat_51", "op": "ConcatV2", "input": ["concat_50", "conv_2d_1xS_52/Identity", "concat_51/axis"], "attr": {"Tidx": {"type": "DT_INT32"}, "T": {"type": "DT_FLOAT"}, "N": {"i": "2"}}}, "constants": {"2": 2}}, "name": "tf_op_layer_concat_51", "inbound_nodes": [[["tf_op_layer_concat_50", 0, 0, {}], ["conv_2d_1xS_52", 0, 0, {}]]]}, {"class_name": "Conv2D", "config": {"name": "conv_2d_1xS_53", "trainable": true, "dtype": "float32", "filters": 3, "kernel_size": [1, 1024], "strides": [1, 1], "padding": "valid", "data_format": "channels_last", "dilation_rate": [1, 1], "activation": "relu", "use_bias": true, "kernel_initializer": {"class_name": "GlorotUniform", "config": {"seed": null}}, "bias_initializer": {"class_name": "Constant", "config": {"value": 0.2}}, "kernel_regularizer": null, "bias_regularizer": null, "activity_regularizer": null, "kernel_constraint": null, "bias_constraint": null}, "name": "conv_2d_1xS_53", "inbound_nodes": [[["input_1", 0, 0, {}]]]}, {"class_name": "TensorFlowOpLayer", "config": {"name": "concat_52", "trainable": true, "dtype": "float32", "node_def": {"name": "concat_52", "op": "ConcatV2", "input": ["concat_51", "conv_2d_1xS_53/Identity", "concat_52/axis"], "attr": {"Tidx": {"type": "DT_INT32"}, "T": {"type": "DT_FLOAT"}, "N": {"i": "2"}}}, "constants": {"2": 2}}, "name": "tf_op_layer_concat_52", "inbound_nodes": [[["tf_op_layer_concat_51", 0, 0, {}], ["conv_2d_1xS_53", 0, 0, {}]]]}, {"class_name": "Conv2D", "config": {"name": "conv_2d_1xS_54", "trainable": true, "dtype": "float32", "filters": 3, "kernel_size": [1, 1024], "strides": [1, 1], "padding": "valid", "data_format": "channels_last", "dilation_rate": [1, 1], "activation": "relu", "use_bias": true, "kernel_initializer": {"class_name": "GlorotUniform", "config": {"seed": null}}, "bias_initializer": {"class_name": "Constant", "config": {"value": 0.2}}, "kernel_regularizer": null, "bias_regularizer": null, "activity_regularizer": null, "kernel_constraint": null, "bias_constraint": null}, "name": "conv_2d_1xS_54", "inbound_nodes": [[["input_1", 0, 0, {}]]]}, {"class_name": "TensorFlowOpLayer", "config": {"name": "concat_53", "trainable": true, "dtype": "float32", "node_def": {"name": "concat_53", "op": "ConcatV2", "input": ["concat_52", "conv_2d_1xS_54/Identity", "concat_53/axis"], "attr": {"Tidx": {"type": "DT_INT32"}, "T": {"type": "DT_FLOAT"}, "N": {"i": "2"}}}, "constants": {"2": 2}}, "name": "tf_op_layer_concat_53", "inbound_nodes": [[["tf_op_layer_concat_52", 0, 0, {}], ["conv_2d_1xS_54", 0, 0, {}]]]}, {"class_name": "Conv2D", "config": {"name": "conv_2d_1xS_55", "trainable": true, "dtype": "float32", "filters": 3, "kernel_size": [1, 1024], "strides": [1, 1], "padding": "valid", "data_format": "channels_last", "dilation_rate": [1, 1], "activation": "relu", "use_bias": true, "kernel_initializer": {"class_name": "GlorotUniform", "config": {"seed": null}}, "bias_initializer": {"class_name": "Constant", "config": {"value": 0.2}}, "kernel_regularizer": null, "bias_regularizer": null, "activity_regularizer": null, "kernel_constraint": null, "bias_constraint": null}, "name": "conv_2d_1xS_55", "inbound_nodes": [[["input_1", 0, 0, {}]]]}, {"class_name": "TensorFlowOpLayer", "config": {"name": "concat_54", "trainable": true, "dtype": "float32", "node_def": {"name": "concat_54", "op": "ConcatV2", "input": ["concat_53", "conv_2d_1xS_55/Identity", "concat_54/axis"], "attr": {"Tidx": {"type": "DT_INT32"}, "T": {"type": "DT_FLOAT"}, "N": {"i": "2"}}}, "constants": {"2": 2}}, "name": "tf_op_layer_concat_54", "inbound_nodes": [[["tf_op_layer_concat_53", 0, 0, {}], ["conv_2d_1xS_55", 0, 0, {}]]]}, {"class_name": "Conv2D", "config": {"name": "conv_2d_1xS_56", "trainable": true, "dtype": "float32", "filters": 3, "kernel_size": [1, 1024], "strides": [1, 1], "padding": "valid", "data_format": "channels_last", "dilation_rate": [1, 1], "activation": "relu", "use_bias": true, "kernel_initializer": {"class_name": "GlorotUniform", "config": {"seed": null}}, "bias_initializer": {"class_name": "Constant", "config": {"value": 0.2}}, "kernel_regularizer": null, "bias_regularizer": null, "activity_regularizer": null, "kernel_constraint": null, "bias_constraint": null}, "name": "conv_2d_1xS_56", "inbound_nodes": [[["input_1", 0, 0, {}]]]}, {"class_name": "TensorFlowOpLayer", "config": {"name": "concat_55", "trainable": true, "dtype": "float32", "node_def": {"name": "concat_55", "op": "ConcatV2", "input": ["concat_54", "conv_2d_1xS_56/Identity", "concat_55/axis"], "attr": {"Tidx": {"type": "DT_INT32"}, "T": {"type": "DT_FLOAT"}, "N": {"i": "2"}}}, "constants": {"2": 2}}, "name": "tf_op_layer_concat_55", "inbound_nodes": [[["tf_op_layer_concat_54", 0, 0, {}], ["conv_2d_1xS_56", 0, 0, {}]]]}, {"class_name": "Conv2D", "config": {"name": "conv_2d_1xS_57", "trainable": true, "dtype": "float32", "filters": 3, "kernel_size": [1, 1024], "strides": [1, 1], "padding": "valid", "data_format": "channels_last", "dilation_rate": [1, 1], "activation": "relu", "use_bias": true, "kernel_initializer": {"class_name": "GlorotUniform", "config": {"seed": null}}, "bias_initializer": {"class_name": "Constant", "config": {"value": 0.2}}, "kernel_regularizer": null, "bias_regularizer": null, "activity_regularizer": null, "kernel_constraint": null, "bias_constraint": null}, "name": "conv_2d_1xS_57", "inbound_nodes": [[["input_1", 0, 0, {}]]]}, {"class_name": "TensorFlowOpLayer", "config": {"name": "concat_56", "trainable": true, "dtype": "float32", "node_def": {"name": "concat_56", "op": "ConcatV2", "input": ["concat_55", "conv_2d_1xS_57/Identity", "concat_56/axis"], "attr": {"Tidx": {"type": "DT_INT32"}, "T": {"type": "DT_FLOAT"}, "N": {"i": "2"}}}, "constants": {"2": 2}}, "name": "tf_op_layer_concat_56", "inbound_nodes": [[["tf_op_layer_concat_55", 0, 0, {}], ["conv_2d_1xS_57", 0, 0, {}]]]}, {"class_name": "Conv2D", "config": {"name": "conv_2d_1xS_58", "trainable": true, "dtype": "float32", "filters": 3, "kernel_size": [1, 1024], "strides": [1, 1], "padding": "valid", "data_format": "channels_last", "dilation_rate": [1, 1], "activation": "relu", "use_bias": true, "kernel_initializer": {"class_name": "GlorotUniform", "config": {"seed": null}}, "bias_initializer": {"class_name": "Constant", "config": {"value": 0.2}}, "kernel_regularizer": null, "bias_regularizer": null, "activity_regularizer": null, "kernel_constraint": null, "bias_constraint": null}, "name": "conv_2d_1xS_58", "inbound_nodes": [[["input_1", 0, 0, {}]]]}, {"class_name": "TensorFlowOpLayer", "config": {"name": "concat_57", "trainable": true, "dtype": "float32", "node_def": {"name": "concat_57", "op": "ConcatV2", "input": ["concat_56", "conv_2d_1xS_58/Identity", "concat_57/axis"], "attr": {"Tidx": {"type": "DT_INT32"}, "T": {"type": "DT_FLOAT"}, "N": {"i": "2"}}}, "constants": {"2": 2}}, "name": "tf_op_layer_concat_57", "inbound_nodes": [[["tf_op_layer_concat_56", 0, 0, {}], ["conv_2d_1xS_58", 0, 0, {}]]]}, {"class_name": "Conv2D", "config": {"name": "conv_2d_1xS_59", "trainable": true, "dtype": "float32", "filters": 3, "kernel_size": [1, 1024], "strides": [1, 1], "padding": "valid", "data_format": "channels_last", "dilation_rate": [1, 1], "activation": "relu", "use_bias": true, "kernel_initializer": {"class_name": "GlorotUniform", "config": {"seed": null}}, "bias_initializer": {"class_name": "Constant", "config": {"value": 0.2}}, "kernel_regularizer": null, "bias_regularizer": null, "activity_regularizer": null, "kernel_constraint": null, "bias_constraint": null}, "name": "conv_2d_1xS_59", "inbound_nodes": [[["input_1", 0, 0, {}]]]}, {"class_name": "TensorFlowOpLayer", "config": {"name": "concat_58", "trainable": true, "dtype": "float32", "node_def": {"name": "concat_58", "op": "ConcatV2", "input": ["concat_57", "conv_2d_1xS_59/Identity", "concat_58/axis"], "attr": {"Tidx": {"type": "DT_INT32"}, "T": {"type": "DT_FLOAT"}, "N": {"i": "2"}}}, "constants": {"2": 2}}, "name": "tf_op_layer_concat_58", "inbound_nodes": [[["tf_op_layer_concat_57", 0, 0, {}], ["conv_2d_1xS_59", 0, 0, {}]]]}, {"class_name": "Conv2D", "config": {"name": "conv_2d_1xS_60", "trainable": true, "dtype": "float32", "filters": 3, "kernel_size": [1, 1024], "strides": [1, 1], "padding": "valid", "data_format": "channels_last", "dilation_rate": [1, 1], "activation": "relu", "use_bias": true, "kernel_initializer": {"class_name": "GlorotUniform", "config": {"seed": null}}, "bias_initializer": {"class_name": "Constant", "config": {"value": 0.2}}, "kernel_regularizer": null, "bias_regularizer": null, "activity_regularizer": null, "kernel_constraint": null, "bias_constraint": null}, "name": "conv_2d_1xS_60", "inbound_nodes": [[["input_1", 0, 0, {}]]]}, {"class_name": "TensorFlowOpLayer", "config": {"name": "concat_59", "trainable": true, "dtype": "float32", "node_def": {"name": "concat_59", "op": "ConcatV2", "input": ["concat_58", "conv_2d_1xS_60/Identity", "concat_59/axis"], "attr": {"Tidx": {"type": "DT_INT32"}, "T": {"type": "DT_FLOAT"}, "N": {"i": "2"}}}, "constants": {"2": 2}}, "name": "tf_op_layer_concat_59", "inbound_nodes": [[["tf_op_layer_concat_58", 0, 0, {}], ["conv_2d_1xS_60", 0, 0, {}]]]}, {"class_name": "Conv2D", "config": {"name": "conv_2d_1xS_61", "trainable": true, "dtype": "float32", "filters": 3, "kernel_size": [1, 1024], "strides": [1, 1], "padding": "valid", "data_format": "channels_last", "dilation_rate": [1, 1], "activation": "relu", "use_bias": true, "kernel_initializer": {"class_name": "GlorotUniform", "config": {"seed": null}}, "bias_initializer": {"class_name": "Constant", "config": {"value": 0.2}}, "kernel_regularizer": null, "bias_regularizer": null, "activity_regularizer": null, "kernel_constraint": null, "bias_constraint": null}, "name": "conv_2d_1xS_61", "inbound_nodes": [[["input_1", 0, 0, {}]]]}, {"class_name": "TensorFlowOpLayer", "config": {"name": "concat_60", "trainable": true, "dtype": "float32", "node_def": {"name": "concat_60", "op": "ConcatV2", "input": ["concat_59", "conv_2d_1xS_61/Identity", "concat_60/axis"], "attr": {"Tidx": {"type": "DT_INT32"}, "T": {"type": "DT_FLOAT"}, "N": {"i": "2"}}}, "constants": {"2": 2}}, "name": "tf_op_layer_concat_60", "inbound_nodes": [[["tf_op_layer_concat_59", 0, 0, {}], ["conv_2d_1xS_61", 0, 0, {}]]]}, {"class_name": "Conv2D", "config": {"name": "conv_2d_1xS_62", "trainable": true, "dtype": "float32", "filters": 3, "kernel_size": [1, 1024], "strides": [1, 1], "padding": "valid", "data_format": "channels_last", "dilation_rate": [1, 1], "activation": "relu", "use_bias": true, "kernel_initializer": {"class_name": "GlorotUniform", "config": {"seed": null}}, "bias_initializer": {"class_name": "Constant", "config": {"value": 0.2}}, "kernel_regularizer": null, "bias_regularizer": null, "activity_regularizer": null, "kernel_constraint": null, "bias_constraint": null}, "name": "conv_2d_1xS_62", "inbound_nodes": [[["input_1", 0, 0, {}]]]}, {"class_name": "TensorFlowOpLayer", "config": {"name": "concat_61", "trainable": true, "dtype": "float32", "node_def": {"name": "concat_61", "op": "ConcatV2", "input": ["concat_60", "conv_2d_1xS_62/Identity", "concat_61/axis"], "attr": {"Tidx": {"type": "DT_INT32"}, "T": {"type": "DT_FLOAT"}, "N": {"i": "2"}}}, "constants": {"2": 2}}, "name": "tf_op_layer_concat_61", "inbound_nodes": [[["tf_op_layer_concat_60", 0, 0, {}], ["conv_2d_1xS_62", 0, 0, {}]]]}, {"class_name": "Conv2D", "config": {"name": "conv_2d_1xS_63", "trainable": true, "dtype": "float32", "filters": 3, "kernel_size": [1, 1024], "strides": [1, 1], "padding": "valid", "data_format": "channels_last", "dilation_rate": [1, 1], "activation": "relu", "use_bias": true, "kernel_initializer": {"class_name": "GlorotUniform", "config": {"seed": null}}, "bias_initializer": {"class_name": "Constant", "config": {"value": 0.2}}, "kernel_regularizer": null, "bias_regularizer": null, "activity_regularizer": null, "kernel_constraint": null, "bias_constraint": null}, "name": "conv_2d_1xS_63", "inbound_nodes": [[["input_1", 0, 0, {}]]]}, {"class_name": "TensorFlowOpLayer", "config": {"name": "concat_62", "trainable": true, "dtype": "float32", "node_def": {"name": "concat_62", "op": "ConcatV2", "input": ["concat_61", "conv_2d_1xS_63/Identity", "concat_62/axis"], "attr": {"Tidx": {"type": "DT_INT32"}, "T": {"type": "DT_FLOAT"}, "N": {"i": "2"}}}, "constants": {"2": 2}}, "name": "tf_op_layer_concat_62", "inbound_nodes": [[["tf_op_layer_concat_61", 0, 0, {}], ["conv_2d_1xS_63", 0, 0, {}]]]}, {"class_name": "Conv2D", "config": {"name": "conv_2d_1xS_64", "trainable": true, "dtype": "float32", "filters": 3, "kernel_size": [1, 1024], "strides": [1, 1], "padding": "valid", "data_format": "channels_last", "dilation_rate": [1, 1], "activation": "relu", "use_bias": true, "kernel_initializer": {"class_name": "GlorotUniform", "config": {"seed": null}}, "bias_initializer": {"class_name": "Constant", "config": {"value": 0.2}}, "kernel_regularizer": null, "bias_regularizer": null, "activity_regularizer": null, "kernel_constraint": null, "bias_constraint": null}, "name": "conv_2d_1xS_64", "inbound_nodes": [[["input_1", 0, 0, {}]]]}, {"class_name": "TensorFlowOpLayer", "config": {"name": "concat_63", "trainable": true, "dtype": "float32", "node_def": {"name": "concat_63", "op": "ConcatV2", "input": ["concat_62", "conv_2d_1xS_64/Identity", "concat_63/axis"], "attr": {"Tidx": {"type": "DT_INT32"}, "T": {"type": "DT_FLOAT"}, "N": {"i": "2"}}}, "constants": {"2": 2}}, "name": "tf_op_layer_concat_63", "inbound_nodes": [[["tf_op_layer_concat_62", 0, 0, {}], ["conv_2d_1xS_64", 0, 0, {}]]]}, {"class_name": "Conv2D", "config": {"name": "conv_2d_1xS_65", "trainable": true, "dtype": "float32", "filters": 3, "kernel_size": [1, 1024], "strides": [1, 1], "padding": "valid", "data_format": "channels_last", "dilation_rate": [1, 1], "activation": "relu", "use_bias": true, "kernel_initializer": {"class_name": "GlorotUniform", "config": {"seed": null}}, "bias_initializer": {"class_name": "Constant", "config": {"value": 0.2}}, "kernel_regularizer": null, "bias_regularizer": null, "activity_regularizer": null, "kernel_constraint": null, "bias_constraint": null}, "name": "conv_2d_1xS_65", "inbound_nodes": [[["input_1", 0, 0, {}]]]}, {"class_name": "TensorFlowOpLayer", "config": {"name": "concat_64", "trainable": true, "dtype": "float32", "node_def": {"name": "concat_64", "op": "ConcatV2", "input": ["concat_63", "conv_2d_1xS_65/Identity", "concat_64/axis"], "attr": {"Tidx": {"type": "DT_INT32"}, "T": {"type": "DT_FLOAT"}, "N": {"i": "2"}}}, "constants": {"2": 2}}, "name": "tf_op_layer_concat_64", "inbound_nodes": [[["tf_op_layer_concat_63", 0, 0, {}], ["conv_2d_1xS_65", 0, 0, {}]]]}, {"class_name": "Conv2D", "config": {"name": "conv_2d_1xS_66", "trainable": true, "dtype": "float32", "filters": 3, "kernel_size": [1, 1024], "strides": [1, 1], "padding": "valid", "data_format": "channels_last", "dilation_rate": [1, 1], "activation": "relu", "use_bias": true, "kernel_initializer": {"class_name": "GlorotUniform", "config": {"seed": null}}, "bias_initializer": {"class_name": "Constant", "config": {"value": 0.2}}, "kernel_regularizer": null, "bias_regularizer": null, "activity_regularizer": null, "kernel_constraint": null, "bias_constraint": null}, "name": "conv_2d_1xS_66", "inbound_nodes": [[["input_1", 0, 0, {}]]]}, {"class_name": "TensorFlowOpLayer", "config": {"name": "concat_65", "trainable": true, "dtype": "float32", "node_def": {"name": "concat_65", "op": "ConcatV2", "input": ["concat_64", "conv_2d_1xS_66/Identity", "concat_65/axis"], "attr": {"Tidx": {"type": "DT_INT32"}, "T": {"type": "DT_FLOAT"}, "N": {"i": "2"}}}, "constants": {"2": 2}}, "name": "tf_op_layer_concat_65", "inbound_nodes": [[["tf_op_layer_concat_64", 0, 0, {}], ["conv_2d_1xS_66", 0, 0, {}]]]}, {"class_name": "Conv2D", "config": {"name": "conv_2d_1xS_67", "trainable": true, "dtype": "float32", "filters": 3, "kernel_size": [1, 1024], "strides": [1, 1], "padding": "valid", "data_format": "channels_last", "dilation_rate": [1, 1], "activation": "relu", "use_bias": true, "kernel_initializer": {"class_name": "GlorotUniform", "config": {"seed": null}}, "bias_initializer": {"class_name": "Constant", "config": {"value": 0.2}}, "kernel_regularizer": null, "bias_regularizer": null, "activity_regularizer": null, "kernel_constraint": null, "bias_constraint": null}, "name": "conv_2d_1xS_67", "inbound_nodes": [[["input_1", 0, 0, {}]]]}, {"class_name": "TensorFlowOpLayer", "config": {"name": "concat_66", "trainable": true, "dtype": "float32", "node_def": {"name": "concat_66", "op": "ConcatV2", "input": ["concat_65", "conv_2d_1xS_67/Identity", "concat_66/axis"], "attr": {"Tidx": {"type": "DT_INT32"}, "T": {"type": "DT_FLOAT"}, "N": {"i": "2"}}}, "constants": {"2": 2}}, "name": "tf_op_layer_concat_66", "inbound_nodes": [[["tf_op_layer_concat_65", 0, 0, {}], ["conv_2d_1xS_67", 0, 0, {}]]]}, {"class_name": "Conv2D", "config": {"name": "conv_2d_1xS_68", "trainable": true, "dtype": "float32", "filters": 3, "kernel_size": [1, 1024], "strides": [1, 1], "padding": "valid", "data_format": "channels_last", "dilation_rate": [1, 1], "activation": "relu", "use_bias": true, "kernel_initializer": {"class_name": "GlorotUniform", "config": {"seed": null}}, "bias_initializer": {"class_name": "Constant", "config": {"value": 0.2}}, "kernel_regularizer": null, "bias_regularizer": null, "activity_regularizer": null, "kernel_constraint": null, "bias_constraint": null}, "name": "conv_2d_1xS_68", "inbound_nodes": [[["input_1", 0, 0, {}]]]}, {"class_name": "TensorFlowOpLayer", "config": {"name": "concat_67", "trainable": true, "dtype": "float32", "node_def": {"name": "concat_67", "op": "ConcatV2", "input": ["concat_66", "conv_2d_1xS_68/Identity", "concat_67/axis"], "attr": {"Tidx": {"type": "DT_INT32"}, "T": {"type": "DT_FLOAT"}, "N": {"i": "2"}}}, "constants": {"2": 2}}, "name": "tf_op_layer_concat_67", "inbound_nodes": [[["tf_op_layer_concat_66", 0, 0, {}], ["conv_2d_1xS_68", 0, 0, {}]]]}, {"class_name": "Conv2D", "config": {"name": "conv_2d_1xS_69", "trainable": true, "dtype": "float32", "filters": 3, "kernel_size": [1, 1024], "strides": [1, 1], "padding": "valid", "data_format": "channels_last", "dilation_rate": [1, 1], "activation": "relu", "use_bias": true, "kernel_initializer": {"class_name": "GlorotUniform", "config": {"seed": null}}, "bias_initializer": {"class_name": "Constant", "config": {"value": 0.2}}, "kernel_regularizer": null, "bias_regularizer": null, "activity_regularizer": null, "kernel_constraint": null, "bias_constraint": null}, "name": "conv_2d_1xS_69", "inbound_nodes": [[["input_1", 0, 0, {}]]]}, {"class_name": "TensorFlowOpLayer", "config": {"name": "concat_68", "trainable": true, "dtype": "float32", "node_def": {"name": "concat_68", "op": "ConcatV2", "input": ["concat_67", "conv_2d_1xS_69/Identity", "concat_68/axis"], "attr": {"Tidx": {"type": "DT_INT32"}, "T": {"type": "DT_FLOAT"}, "N": {"i": "2"}}}, "constants": {"2": 2}}, "name": "tf_op_layer_concat_68", "inbound_nodes": [[["tf_op_layer_concat_67", 0, 0, {}], ["conv_2d_1xS_69", 0, 0, {}]]]}, {"class_name": "Conv2D", "config": {"name": "conv_2d_1xS_70", "trainable": true, "dtype": "float32", "filters": 3, "kernel_size": [1, 1024], "strides": [1, 1], "padding": "valid", "data_format": "channels_last", "dilation_rate": [1, 1], "activation": "relu", "use_bias": true, "kernel_initializer": {"class_name": "GlorotUniform", "config": {"seed": null}}, "bias_initializer": {"class_name": "Constant", "config": {"value": 0.2}}, "kernel_regularizer": null, "bias_regularizer": null, "activity_regularizer": null, "kernel_constraint": null, "bias_constraint": null}, "name": "conv_2d_1xS_70", "inbound_nodes": [[["input_1", 0, 0, {}]]]}, {"class_name": "TensorFlowOpLayer", "config": {"name": "concat_69", "trainable": true, "dtype": "float32", "node_def": {"name": "concat_69", "op": "ConcatV2", "input": ["concat_68", "conv_2d_1xS_70/Identity", "concat_69/axis"], "attr": {"Tidx": {"type": "DT_INT32"}, "T": {"type": "DT_FLOAT"}, "N": {"i": "2"}}}, "constants": {"2": 2}}, "name": "tf_op_layer_concat_69", "inbound_nodes": [[["tf_op_layer_concat_68", 0, 0, {}], ["conv_2d_1xS_70", 0, 0, {}]]]}, {"class_name": "Conv2D", "config": {"name": "conv_2d_1xS_71", "trainable": true, "dtype": "float32", "filters": 3, "kernel_size": [1, 1024], "strides": [1, 1], "padding": "valid", "data_format": "channels_last", "dilation_rate": [1, 1], "activation": "relu", "use_bias": true, "kernel_initializer": {"class_name": "GlorotUniform", "config": {"seed": null}}, "bias_initializer": {"class_name": "Constant", "config": {"value": 0.2}}, "kernel_regularizer": null, "bias_regularizer": null, "activity_regularizer": null, "kernel_constraint": null, "bias_constraint": null}, "name": "conv_2d_1xS_71", "inbound_nodes": [[["input_1", 0, 0, {}]]]}, {"class_name": "TensorFlowOpLayer", "config": {"name": "concat_70", "trainable": true, "dtype": "float32", "node_def": {"name": "concat_70", "op": "ConcatV2", "input": ["concat_69", "conv_2d_1xS_71/Identity", "concat_70/axis"], "attr": {"Tidx": {"type": "DT_INT32"}, "T": {"type": "DT_FLOAT"}, "N": {"i": "2"}}}, "constants": {"2": 2}}, "name": "tf_op_layer_concat_70", "inbound_nodes": [[["tf_op_layer_concat_69", 0, 0, {}], ["conv_2d_1xS_71", 0, 0, {}]]]}, {"class_name": "Conv2D", "config": {"name": "conv_2d_1xS_72", "trainable": true, "dtype": "float32", "filters": 3, "kernel_size": [1, 1024], "strides": [1, 1], "padding": "valid", "data_format": "channels_last", "dilation_rate": [1, 1], "activation": "relu", "use_bias": true, "kernel_initializer": {"class_name": "GlorotUniform", "config": {"seed": null}}, "bias_initializer": {"class_name": "Constant", "config": {"value": 0.2}}, "kernel_regularizer": null, "bias_regularizer": null, "activity_regularizer": null, "kernel_constraint": null, "bias_constraint": null}, "name": "conv_2d_1xS_72", "inbound_nodes": [[["input_1", 0, 0, {}]]]}, {"class_name": "TensorFlowOpLayer", "config": {"name": "concat_71", "trainable": true, "dtype": "float32", "node_def": {"name": "concat_71", "op": "ConcatV2", "input": ["concat_70", "conv_2d_1xS_72/Identity", "concat_71/axis"], "attr": {"Tidx": {"type": "DT_INT32"}, "T": {"type": "DT_FLOAT"}, "N": {"i": "2"}}}, "constants": {"2": 2}}, "name": "tf_op_layer_concat_71", "inbound_nodes": [[["tf_op_layer_concat_70", 0, 0, {}], ["conv_2d_1xS_72", 0, 0, {}]]]}, {"class_name": "Conv2D", "config": {"name": "conv_2d_1xS_73", "trainable": true, "dtype": "float32", "filters": 3, "kernel_size": [1, 1024], "strides": [1, 1], "padding": "valid", "data_format": "channels_last", "dilation_rate": [1, 1], "activation": "relu", "use_bias": true, "kernel_initializer": {"class_name": "GlorotUniform", "config": {"seed": null}}, "bias_initializer": {"class_name": "Constant", "config": {"value": 0.2}}, "kernel_regularizer": null, "bias_regularizer": null, "activity_regularizer": null, "kernel_constraint": null, "bias_constraint": null}, "name": "conv_2d_1xS_73", "inbound_nodes": [[["input_1", 0, 0, {}]]]}, {"class_name": "TensorFlowOpLayer", "config": {"name": "concat_72", "trainable": true, "dtype": "float32", "node_def": {"name": "concat_72", "op": "ConcatV2", "input": ["concat_71", "conv_2d_1xS_73/Identity", "concat_72/axis"], "attr": {"Tidx": {"type": "DT_INT32"}, "T": {"type": "DT_FLOAT"}, "N": {"i": "2"}}}, "constants": {"2": 2}}, "name": "tf_op_layer_concat_72", "inbound_nodes": [[["tf_op_layer_concat_71", 0, 0, {}], ["conv_2d_1xS_73", 0, 0, {}]]]}, {"class_name": "Conv2D", "config": {"name": "conv_2d_1xS_74", "trainable": true, "dtype": "float32", "filters": 3, "kernel_size": [1, 1024], "strides": [1, 1], "padding": "valid", "data_format": "channels_last", "dilation_rate": [1, 1], "activation": "relu", "use_bias": true, "kernel_initializer": {"class_name": "GlorotUniform", "config": {"seed": null}}, "bias_initializer": {"class_name": "Constant", "config": {"value": 0.2}}, "kernel_regularizer": null, "bias_regularizer": null, "activity_regularizer": null, "kernel_constraint": null, "bias_constraint": null}, "name": "conv_2d_1xS_74", "inbound_nodes": [[["input_1", 0, 0, {}]]]}, {"class_name": "TensorFlowOpLayer", "config": {"name": "concat_73", "trainable": true, "dtype": "float32", "node_def": {"name": "concat_73", "op": "ConcatV2", "input": ["concat_72", "conv_2d_1xS_74/Identity", "concat_73/axis"], "attr": {"Tidx": {"type": "DT_INT32"}, "T": {"type": "DT_FLOAT"}, "N": {"i": "2"}}}, "constants": {"2": 2}}, "name": "tf_op_layer_concat_73", "inbound_nodes": [[["tf_op_layer_concat_72", 0, 0, {}], ["conv_2d_1xS_74", 0, 0, {}]]]}, {"class_name": "Conv2D", "config": {"name": "conv_2d_1xS_75", "trainable": true, "dtype": "float32", "filters": 3, "kernel_size": [1, 1024], "strides": [1, 1], "padding": "valid", "data_format": "channels_last", "dilation_rate": [1, 1], "activation": "relu", "use_bias": true, "kernel_initializer": {"class_name": "GlorotUniform", "config": {"seed": null}}, "bias_initializer": {"class_name": "Constant", "config": {"value": 0.2}}, "kernel_regularizer": null, "bias_regularizer": null, "activity_regularizer": null, "kernel_constraint": null, "bias_constraint": null}, "name": "conv_2d_1xS_75", "inbound_nodes": [[["input_1", 0, 0, {}]]]}, {"class_name": "TensorFlowOpLayer", "config": {"name": "concat_74", "trainable": true, "dtype": "float32", "node_def": {"name": "concat_74", "op": "ConcatV2", "input": ["concat_73", "conv_2d_1xS_75/Identity", "concat_74/axis"], "attr": {"Tidx": {"type": "DT_INT32"}, "T": {"type": "DT_FLOAT"}, "N": {"i": "2"}}}, "constants": {"2": 2}}, "name": "tf_op_layer_concat_74", "inbound_nodes": [[["tf_op_layer_concat_73", 0, 0, {}], ["conv_2d_1xS_75", 0, 0, {}]]]}, {"class_name": "Conv2D", "config": {"name": "conv_2d_1xS_76", "trainable": true, "dtype": "float32", "filters": 3, "kernel_size": [1, 1024], "strides": [1, 1], "padding": "valid", "data_format": "channels_last", "dilation_rate": [1, 1], "activation": "relu", "use_bias": true, "kernel_initializer": {"class_name": "GlorotUniform", "config": {"seed": null}}, "bias_initializer": {"class_name": "Constant", "config": {"value": 0.2}}, "kernel_regularizer": null, "bias_regularizer": null, "activity_regularizer": null, "kernel_constraint": null, "bias_constraint": null}, "name": "conv_2d_1xS_76", "inbound_nodes": [[["input_1", 0, 0, {}]]]}, {"class_name": "TensorFlowOpLayer", "config": {"name": "concat_75", "trainable": true, "dtype": "float32", "node_def": {"name": "concat_75", "op": "ConcatV2", "input": ["concat_74", "conv_2d_1xS_76/Identity", "concat_75/axis"], "attr": {"Tidx": {"type": "DT_INT32"}, "T": {"type": "DT_FLOAT"}, "N": {"i": "2"}}}, "constants": {"2": 2}}, "name": "tf_op_layer_concat_75", "inbound_nodes": [[["tf_op_layer_concat_74", 0, 0, {}], ["conv_2d_1xS_76", 0, 0, {}]]]}, {"class_name": "Conv2D", "config": {"name": "conv_2d_1xS_77", "trainable": true, "dtype": "float32", "filters": 3, "kernel_size": [1, 1024], "strides": [1, 1], "padding": "valid", "data_format": "channels_last", "dilation_rate": [1, 1], "activation": "relu", "use_bias": true, "kernel_initializer": {"class_name": "GlorotUniform", "config": {"seed": null}}, "bias_initializer": {"class_name": "Constant", "config": {"value": 0.2}}, "kernel_regularizer": null, "bias_regularizer": null, "activity_regularizer": null, "kernel_constraint": null, "bias_constraint": null}, "name": "conv_2d_1xS_77", "inbound_nodes": [[["input_1", 0, 0, {}]]]}, {"class_name": "TensorFlowOpLayer", "config": {"name": "concat_76", "trainable": true, "dtype": "float32", "node_def": {"name": "concat_76", "op": "ConcatV2", "input": ["concat_75", "conv_2d_1xS_77/Identity", "concat_76/axis"], "attr": {"Tidx": {"type": "DT_INT32"}, "T": {"type": "DT_FLOAT"}, "N": {"i": "2"}}}, "constants": {"2": 2}}, "name": "tf_op_layer_concat_76", "inbound_nodes": [[["tf_op_layer_concat_75", 0, 0, {}], ["conv_2d_1xS_77", 0, 0, {}]]]}, {"class_name": "Conv2D", "config": {"name": "conv_2d_1xS_78", "trainable": true, "dtype": "float32", "filters": 3, "kernel_size": [1, 1024], "strides": [1, 1], "padding": "valid", "data_format": "channels_last", "dilation_rate": [1, 1], "activation": "relu", "use_bias": true, "kernel_initializer": {"class_name": "GlorotUniform", "config": {"seed": null}}, "bias_initializer": {"class_name": "Constant", "config": {"value": 0.2}}, "kernel_regularizer": null, "bias_regularizer": null, "activity_regularizer": null, "kernel_constraint": null, "bias_constraint": null}, "name": "conv_2d_1xS_78", "inbound_nodes": [[["input_1", 0, 0, {}]]]}, {"class_name": "TensorFlowOpLayer", "config": {"name": "concat_77", "trainable": true, "dtype": "float32", "node_def": {"name": "concat_77", "op": "ConcatV2", "input": ["concat_76", "conv_2d_1xS_78/Identity", "concat_77/axis"], "attr": {"Tidx": {"type": "DT_INT32"}, "T": {"type": "DT_FLOAT"}, "N": {"i": "2"}}}, "constants": {"2": 2}}, "name": "tf_op_layer_concat_77", "inbound_nodes": [[["tf_op_layer_concat_76", 0, 0, {}], ["conv_2d_1xS_78", 0, 0, {}]]]}, {"class_name": "Conv2D", "config": {"name": "conv_2d_1xS_79", "trainable": true, "dtype": "float32", "filters": 3, "kernel_size": [1, 1024], "strides": [1, 1], "padding": "valid", "data_format": "channels_last", "dilation_rate": [1, 1], "activation": "relu", "use_bias": true, "kernel_initializer": {"class_name": "GlorotUniform", "config": {"seed": null}}, "bias_initializer": {"class_name": "Constant", "config": {"value": 0.2}}, "kernel_regularizer": null, "bias_regularizer": null, "activity_regularizer": null, "kernel_constraint": null, "bias_constraint": null}, "name": "conv_2d_1xS_79", "inbound_nodes": [[["input_1", 0, 0, {}]]]}, {"class_name": "TensorFlowOpLayer", "config": {"name": "concat_78", "trainable": true, "dtype": "float32", "node_def": {"name": "concat_78", "op": "ConcatV2", "input": ["concat_77", "conv_2d_1xS_79/Identity", "concat_78/axis"], "attr": {"Tidx": {"type": "DT_INT32"}, "T": {"type": "DT_FLOAT"}, "N": {"i": "2"}}}, "constants": {"2": 2}}, "name": "tf_op_layer_concat_78", "inbound_nodes": [[["tf_op_layer_concat_77", 0, 0, {}], ["conv_2d_1xS_79", 0, 0, {}]]]}, {"class_name": "Conv2D", "config": {"name": "conv_2d_1xS_80", "trainable": true, "dtype": "float32", "filters": 3, "kernel_size": [1, 1024], "strides": [1, 1], "padding": "valid", "data_format": "channels_last", "dilation_rate": [1, 1], "activation": "relu", "use_bias": true, "kernel_initializer": {"class_name": "GlorotUniform", "config": {"seed": null}}, "bias_initializer": {"class_name": "Constant", "config": {"value": 0.2}}, "kernel_regularizer": null, "bias_regularizer": null, "activity_regularizer": null, "kernel_constraint": null, "bias_constraint": null}, "name": "conv_2d_1xS_80", "inbound_nodes": [[["input_1", 0, 0, {}]]]}, {"class_name": "TensorFlowOpLayer", "config": {"name": "concat_79", "trainable": true, "dtype": "float32", "node_def": {"name": "concat_79", "op": "ConcatV2", "input": ["concat_78", "conv_2d_1xS_80/Identity", "concat_79/axis"], "attr": {"Tidx": {"type": "DT_INT32"}, "T": {"type": "DT_FLOAT"}, "N": {"i": "2"}}}, "constants": {"2": 2}}, "name": "tf_op_layer_concat_79", "inbound_nodes": [[["tf_op_layer_concat_78", 0, 0, {}], ["conv_2d_1xS_80", 0, 0, {}]]]}, {"class_name": "Conv2D", "config": {"name": "conv_2d_1xS_81", "trainable": true, "dtype": "float32", "filters": 3, "kernel_size": [1, 1024], "strides": [1, 1], "padding": "valid", "data_format": "channels_last", "dilation_rate": [1, 1], "activation": "relu", "use_bias": true, "kernel_initializer": {"class_name": "GlorotUniform", "config": {"seed": null}}, "bias_initializer": {"class_name": "Constant", "config": {"value": 0.2}}, "kernel_regularizer": null, "bias_regularizer": null, "activity_regularizer": null, "kernel_constraint": null, "bias_constraint": null}, "name": "conv_2d_1xS_81", "inbound_nodes": [[["input_1", 0, 0, {}]]]}, {"class_name": "TensorFlowOpLayer", "config": {"name": "concat_80", "trainable": true, "dtype": "float32", "node_def": {"name": "concat_80", "op": "ConcatV2", "input": ["concat_79", "conv_2d_1xS_81/Identity", "concat_80/axis"], "attr": {"Tidx": {"type": "DT_INT32"}, "T": {"type": "DT_FLOAT"}, "N": {"i": "2"}}}, "constants": {"2": 2}}, "name": "tf_op_layer_concat_80", "inbound_nodes": [[["tf_op_layer_concat_79", 0, 0, {}], ["conv_2d_1xS_81", 0, 0, {}]]]}, {"class_name": "Conv2D", "config": {"name": "conv_2d_1xS_82", "trainable": true, "dtype": "float32", "filters": 3, "kernel_size": [1, 1024], "strides": [1, 1], "padding": "valid", "data_format": "channels_last", "dilation_rate": [1, 1], "activation": "relu", "use_bias": true, "kernel_initializer": {"class_name": "GlorotUniform", "config": {"seed": null}}, "bias_initializer": {"class_name": "Constant", "config": {"value": 0.2}}, "kernel_regularizer": null, "bias_regularizer": null, "activity_regularizer": null, "kernel_constraint": null, "bias_constraint": null}, "name": "conv_2d_1xS_82", "inbound_nodes": [[["input_1", 0, 0, {}]]]}, {"class_name": "TensorFlowOpLayer", "config": {"name": "concat_81", "trainable": true, "dtype": "float32", "node_def": {"name": "concat_81", "op": "ConcatV2", "input": ["concat_80", "conv_2d_1xS_82/Identity", "concat_81/axis"], "attr": {"Tidx": {"type": "DT_INT32"}, "T": {"type": "DT_FLOAT"}, "N": {"i": "2"}}}, "constants": {"2": 2}}, "name": "tf_op_layer_concat_81", "inbound_nodes": [[["tf_op_layer_concat_80", 0, 0, {}], ["conv_2d_1xS_82", 0, 0, {}]]]}, {"class_name": "Conv2D", "config": {"name": "conv_2d_1xS_83", "trainable": true, "dtype": "float32", "filters": 3, "kernel_size": [1, 1024], "strides": [1, 1], "padding": "valid", "data_format": "channels_last", "dilation_rate": [1, 1], "activation": "relu", "use_bias": true, "kernel_initializer": {"class_name": "GlorotUniform", "config": {"seed": null}}, "bias_initializer": {"class_name": "Constant", "config": {"value": 0.2}}, "kernel_regularizer": null, "bias_regularizer": null, "activity_regularizer": null, "kernel_constraint": null, "bias_constraint": null}, "name": "conv_2d_1xS_83", "inbound_nodes": [[["input_1", 0, 0, {}]]]}, {"class_name": "TensorFlowOpLayer", "config": {"name": "concat_82", "trainable": true, "dtype": "float32", "node_def": {"name": "concat_82", "op": "ConcatV2", "input": ["concat_81", "conv_2d_1xS_83/Identity", "concat_82/axis"], "attr": {"Tidx": {"type": "DT_INT32"}, "T": {"type": "DT_FLOAT"}, "N": {"i": "2"}}}, "constants": {"2": 2}}, "name": "tf_op_layer_concat_82", "inbound_nodes": [[["tf_op_layer_concat_81", 0, 0, {}], ["conv_2d_1xS_83", 0, 0, {}]]]}, {"class_name": "Conv2D", "config": {"name": "conv_2d_1xS_84", "trainable": true, "dtype": "float32", "filters": 3, "kernel_size": [1, 1024], "strides": [1, 1], "padding": "valid", "data_format": "channels_last", "dilation_rate": [1, 1], "activation": "relu", "use_bias": true, "kernel_initializer": {"class_name": "GlorotUniform", "config": {"seed": null}}, "bias_initializer": {"class_name": "Constant", "config": {"value": 0.2}}, "kernel_regularizer": null, "bias_regularizer": null, "activity_regularizer": null, "kernel_constraint": null, "bias_constraint": null}, "name": "conv_2d_1xS_84", "inbound_nodes": [[["input_1", 0, 0, {}]]]}, {"class_name": "TensorFlowOpLayer", "config": {"name": "concat_83", "trainable": true, "dtype": "float32", "node_def": {"name": "concat_83", "op": "ConcatV2", "input": ["concat_82", "conv_2d_1xS_84/Identity", "concat_83/axis"], "attr": {"Tidx": {"type": "DT_INT32"}, "T": {"type": "DT_FLOAT"}, "N": {"i": "2"}}}, "constants": {"2": 2}}, "name": "tf_op_layer_concat_83", "inbound_nodes": [[["tf_op_layer_concat_82", 0, 0, {}], ["conv_2d_1xS_84", 0, 0, {}]]]}, {"class_name": "Conv2D", "config": {"name": "conv_2d_1xS_85", "trainable": true, "dtype": "float32", "filters": 3, "kernel_size": [1, 1024], "strides": [1, 1], "padding": "valid", "data_format": "channels_last", "dilation_rate": [1, 1], "activation": "relu", "use_bias": true, "kernel_initializer": {"class_name": "GlorotUniform", "config": {"seed": null}}, "bias_initializer": {"class_name": "Constant", "config": {"value": 0.2}}, "kernel_regularizer": null, "bias_regularizer": null, "activity_regularizer": null, "kernel_constraint": null, "bias_constraint": null}, "name": "conv_2d_1xS_85", "inbound_nodes": [[["input_1", 0, 0, {}]]]}, {"class_name": "TensorFlowOpLayer", "config": {"name": "concat_84", "trainable": true, "dtype": "float32", "node_def": {"name": "concat_84", "op": "ConcatV2", "input": ["concat_83", "conv_2d_1xS_85/Identity", "concat_84/axis"], "attr": {"Tidx": {"type": "DT_INT32"}, "T": {"type": "DT_FLOAT"}, "N": {"i": "2"}}}, "constants": {"2": 2}}, "name": "tf_op_layer_concat_84", "inbound_nodes": [[["tf_op_layer_concat_83", 0, 0, {}], ["conv_2d_1xS_85", 0, 0, {}]]]}, {"class_name": "Conv2D", "config": {"name": "conv_2d_1xS_86", "trainable": true, "dtype": "float32", "filters": 3, "kernel_size": [1, 1024], "strides": [1, 1], "padding": "valid", "data_format": "channels_last", "dilation_rate": [1, 1], "activation": "relu", "use_bias": true, "kernel_initializer": {"class_name": "GlorotUniform", "config": {"seed": null}}, "bias_initializer": {"class_name": "Constant", "config": {"value": 0.2}}, "kernel_regularizer": null, "bias_regularizer": null, "activity_regularizer": null, "kernel_constraint": null, "bias_constraint": null}, "name": "conv_2d_1xS_86", "inbound_nodes": [[["input_1", 0, 0, {}]]]}, {"class_name": "TensorFlowOpLayer", "config": {"name": "concat_85", "trainable": true, "dtype": "float32", "node_def": {"name": "concat_85", "op": "ConcatV2", "input": ["concat_84", "conv_2d_1xS_86/Identity", "concat_85/axis"], "attr": {"Tidx": {"type": "DT_INT32"}, "T": {"type": "DT_FLOAT"}, "N": {"i": "2"}}}, "constants": {"2": 2}}, "name": "tf_op_layer_concat_85", "inbound_nodes": [[["tf_op_layer_concat_84", 0, 0, {}], ["conv_2d_1xS_86", 0, 0, {}]]]}, {"class_name": "Conv2D", "config": {"name": "conv_2d_1xS_87", "trainable": true, "dtype": "float32", "filters": 3, "kernel_size": [1, 1024], "strides": [1, 1], "padding": "valid", "data_format": "channels_last", "dilation_rate": [1, 1], "activation": "relu", "use_bias": true, "kernel_initializer": {"class_name": "GlorotUniform", "config": {"seed": null}}, "bias_initializer": {"class_name": "Constant", "config": {"value": 0.2}}, "kernel_regularizer": null, "bias_regularizer": null, "activity_regularizer": null, "kernel_constraint": null, "bias_constraint": null}, "name": "conv_2d_1xS_87", "inbound_nodes": [[["input_1", 0, 0, {}]]]}, {"class_name": "TensorFlowOpLayer", "config": {"name": "concat_86", "trainable": true, "dtype": "float32", "node_def": {"name": "concat_86", "op": "ConcatV2", "input": ["concat_85", "conv_2d_1xS_87/Identity", "concat_86/axis"], "attr": {"Tidx": {"type": "DT_INT32"}, "T": {"type": "DT_FLOAT"}, "N": {"i": "2"}}}, "constants": {"2": 2}}, "name": "tf_op_layer_concat_86", "inbound_nodes": [[["tf_op_layer_concat_85", 0, 0, {}], ["conv_2d_1xS_87", 0, 0, {}]]]}, {"class_name": "Conv2D", "config": {"name": "conv_2d_1xS_88", "trainable": true, "dtype": "float32", "filters": 3, "kernel_size": [1, 1024], "strides": [1, 1], "padding": "valid", "data_format": "channels_last", "dilation_rate": [1, 1], "activation": "relu", "use_bias": true, "kernel_initializer": {"class_name": "GlorotUniform", "config": {"seed": null}}, "bias_initializer": {"class_name": "Constant", "config": {"value": 0.2}}, "kernel_regularizer": null, "bias_regularizer": null, "activity_regularizer": null, "kernel_constraint": null, "bias_constraint": null}, "name": "conv_2d_1xS_88", "inbound_nodes": [[["input_1", 0, 0, {}]]]}, {"class_name": "TensorFlowOpLayer", "config": {"name": "concat_87", "trainable": true, "dtype": "float32", "node_def": {"name": "concat_87", "op": "ConcatV2", "input": ["concat_86", "conv_2d_1xS_88/Identity", "concat_87/axis"], "attr": {"Tidx": {"type": "DT_INT32"}, "T": {"type": "DT_FLOAT"}, "N": {"i": "2"}}}, "constants": {"2": 2}}, "name": "tf_op_layer_concat_87", "inbound_nodes": [[["tf_op_layer_concat_86", 0, 0, {}], ["conv_2d_1xS_88", 0, 0, {}]]]}, {"class_name": "Conv2D", "config": {"name": "conv_2d_1xS_89", "trainable": true, "dtype": "float32", "filters": 3, "kernel_size": [1, 1024], "strides": [1, 1], "padding": "valid", "data_format": "channels_last", "dilation_rate": [1, 1], "activation": "relu", "use_bias": true, "kernel_initializer": {"class_name": "GlorotUniform", "config": {"seed": null}}, "bias_initializer": {"class_name": "Constant", "config": {"value": 0.2}}, "kernel_regularizer": null, "bias_regularizer": null, "activity_regularizer": null, "kernel_constraint": null, "bias_constraint": null}, "name": "conv_2d_1xS_89", "inbound_nodes": [[["input_1", 0, 0, {}]]]}, {"class_name": "TensorFlowOpLayer", "config": {"name": "concat_88", "trainable": true, "dtype": "float32", "node_def": {"name": "concat_88", "op": "ConcatV2", "input": ["concat_87", "conv_2d_1xS_89/Identity", "concat_88/axis"], "attr": {"Tidx": {"type": "DT_INT32"}, "T": {"type": "DT_FLOAT"}, "N": {"i": "2"}}}, "constants": {"2": 2}}, "name": "tf_op_layer_concat_88", "inbound_nodes": [[["tf_op_layer_concat_87", 0, 0, {}], ["conv_2d_1xS_89", 0, 0, {}]]]}, {"class_name": "Conv2D", "config": {"name": "conv_2d_1xS_90", "trainable": true, "dtype": "float32", "filters": 3, "kernel_size": [1, 1024], "strides": [1, 1], "padding": "valid", "data_format": "channels_last", "dilation_rate": [1, 1], "activation": "relu", "use_bias": true, "kernel_initializer": {"class_name": "GlorotUniform", "config": {"seed": null}}, "bias_initializer": {"class_name": "Constant", "config": {"value": 0.2}}, "kernel_regularizer": null, "bias_regularizer": null, "activity_regularizer": null, "kernel_constraint": null, "bias_constraint": null}, "name": "conv_2d_1xS_90", "inbound_nodes": [[["input_1", 0, 0, {}]]]}, {"class_name": "TensorFlowOpLayer", "config": {"name": "concat_89", "trainable": true, "dtype": "float32", "node_def": {"name": "concat_89", "op": "ConcatV2", "input": ["concat_88", "conv_2d_1xS_90/Identity", "concat_89/axis"], "attr": {"Tidx": {"type": "DT_INT32"}, "T": {"type": "DT_FLOAT"}, "N": {"i": "2"}}}, "constants": {"2": 2}}, "name": "tf_op_layer_concat_89", "inbound_nodes": [[["tf_op_layer_concat_88", 0, 0, {}], ["conv_2d_1xS_90", 0, 0, {}]]]}, {"class_name": "Conv2D", "config": {"name": "conv_2d_1xS_91", "trainable": true, "dtype": "float32", "filters": 3, "kernel_size": [1, 1024], "strides": [1, 1], "padding": "valid", "data_format": "channels_last", "dilation_rate": [1, 1], "activation": "relu", "use_bias": true, "kernel_initializer": {"class_name": "GlorotUniform", "config": {"seed": null}}, "bias_initializer": {"class_name": "Constant", "config": {"value": 0.2}}, "kernel_regularizer": null, "bias_regularizer": null, "activity_regularizer": null, "kernel_constraint": null, "bias_constraint": null}, "name": "conv_2d_1xS_91", "inbound_nodes": [[["input_1", 0, 0, {}]]]}, {"class_name": "TensorFlowOpLayer", "config": {"name": "concat_90", "trainable": true, "dtype": "float32", "node_def": {"name": "concat_90", "op": "ConcatV2", "input": ["concat_89", "conv_2d_1xS_91/Identity", "concat_90/axis"], "attr": {"Tidx": {"type": "DT_INT32"}, "T": {"type": "DT_FLOAT"}, "N": {"i": "2"}}}, "constants": {"2": 2}}, "name": "tf_op_layer_concat_90", "inbound_nodes": [[["tf_op_layer_concat_89", 0, 0, {}], ["conv_2d_1xS_91", 0, 0, {}]]]}, {"class_name": "Conv2D", "config": {"name": "conv_2d_1xS_92", "trainable": true, "dtype": "float32", "filters": 3, "kernel_size": [1, 1024], "strides": [1, 1], "padding": "valid", "data_format": "channels_last", "dilation_rate": [1, 1], "activation": "relu", "use_bias": true, "kernel_initializer": {"class_name": "GlorotUniform", "config": {"seed": null}}, "bias_initializer": {"class_name": "Constant", "config": {"value": 0.2}}, "kernel_regularizer": null, "bias_regularizer": null, "activity_regularizer": null, "kernel_constraint": null, "bias_constraint": null}, "name": "conv_2d_1xS_92", "inbound_nodes": [[["input_1", 0, 0, {}]]]}, {"class_name": "TensorFlowOpLayer", "config": {"name": "concat_91", "trainable": true, "dtype": "float32", "node_def": {"name": "concat_91", "op": "ConcatV2", "input": ["concat_90", "conv_2d_1xS_92/Identity", "concat_91/axis"], "attr": {"Tidx": {"type": "DT_INT32"}, "T": {"type": "DT_FLOAT"}, "N": {"i": "2"}}}, "constants": {"2": 2}}, "name": "tf_op_layer_concat_91", "inbound_nodes": [[["tf_op_layer_concat_90", 0, 0, {}], ["conv_2d_1xS_92", 0, 0, {}]]]}, {"class_name": "Conv2D", "config": {"name": "conv_2d_1xS_93", "trainable": true, "dtype": "float32", "filters": 3, "kernel_size": [1, 1024], "strides": [1, 1], "padding": "valid", "data_format": "channels_last", "dilation_rate": [1, 1], "activation": "relu", "use_bias": true, "kernel_initializer": {"class_name": "GlorotUniform", "config": {"seed": null}}, "bias_initializer": {"class_name": "Constant", "config": {"value": 0.2}}, "kernel_regularizer": null, "bias_regularizer": null, "activity_regularizer": null, "kernel_constraint": null, "bias_constraint": null}, "name": "conv_2d_1xS_93", "inbound_nodes": [[["input_1", 0, 0, {}]]]}, {"class_name": "TensorFlowOpLayer", "config": {"name": "concat_92", "trainable": true, "dtype": "float32", "node_def": {"name": "concat_92", "op": "ConcatV2", "input": ["concat_91", "conv_2d_1xS_93/Identity", "concat_92/axis"], "attr": {"Tidx": {"type": "DT_INT32"}, "T": {"type": "DT_FLOAT"}, "N": {"i": "2"}}}, "constants": {"2": 2}}, "name": "tf_op_layer_concat_92", "inbound_nodes": [[["tf_op_layer_concat_91", 0, 0, {}], ["conv_2d_1xS_93", 0, 0, {}]]]}, {"class_name": "Conv2D", "config": {"name": "conv_2d_1xS_94", "trainable": true, "dtype": "float32", "filters": 3, "kernel_size": [1, 1024], "strides": [1, 1], "padding": "valid", "data_format": "channels_last", "dilation_rate": [1, 1], "activation": "relu", "use_bias": true, "kernel_initializer": {"class_name": "GlorotUniform", "config": {"seed": null}}, "bias_initializer": {"class_name": "Constant", "config": {"value": 0.2}}, "kernel_regularizer": null, "bias_regularizer": null, "activity_regularizer": null, "kernel_constraint": null, "bias_constraint": null}, "name": "conv_2d_1xS_94", "inbound_nodes": [[["input_1", 0, 0, {}]]]}, {"class_name": "TensorFlowOpLayer", "config": {"name": "concat_93", "trainable": true, "dtype": "float32", "node_def": {"name": "concat_93", "op": "ConcatV2", "input": ["concat_92", "conv_2d_1xS_94/Identity", "concat_93/axis"], "attr": {"Tidx": {"type": "DT_INT32"}, "T": {"type": "DT_FLOAT"}, "N": {"i": "2"}}}, "constants": {"2": 2}}, "name": "tf_op_layer_concat_93", "inbound_nodes": [[["tf_op_layer_concat_92", 0, 0, {}], ["conv_2d_1xS_94", 0, 0, {}]]]}, {"class_name": "Conv2D", "config": {"name": "conv_2d_1xS_95", "trainable": true, "dtype": "float32", "filters": 3, "kernel_size": [1, 1024], "strides": [1, 1], "padding": "valid", "data_format": "channels_last", "dilation_rate": [1, 1], "activation": "relu", "use_bias": true, "kernel_initializer": {"class_name": "GlorotUniform", "config": {"seed": null}}, "bias_initializer": {"class_name": "Constant", "config": {"value": 0.2}}, "kernel_regularizer": null, "bias_regularizer": null, "activity_regularizer": null, "kernel_constraint": null, "bias_constraint": null}, "name": "conv_2d_1xS_95", "inbound_nodes": [[["input_1", 0, 0, {}]]]}, {"class_name": "TensorFlowOpLayer", "config": {"name": "concat_94", "trainable": true, "dtype": "float32", "node_def": {"name": "concat_94", "op": "ConcatV2", "input": ["concat_93", "conv_2d_1xS_95/Identity", "concat_94/axis"], "attr": {"Tidx": {"type": "DT_INT32"}, "T": {"type": "DT_FLOAT"}, "N": {"i": "2"}}}, "constants": {"2": 2}}, "name": "tf_op_layer_concat_94", "inbound_nodes": [[["tf_op_layer_concat_93", 0, 0, {}], ["conv_2d_1xS_95", 0, 0, {}]]]}, {"class_name": "Conv2D", "config": {"name": "conv_2d_1xS_96", "trainable": true, "dtype": "float32", "filters": 3, "kernel_size": [1, 1024], "strides": [1, 1], "padding": "valid", "data_format": "channels_last", "dilation_rate": [1, 1], "activation": "relu", "use_bias": true, "kernel_initializer": {"class_name": "GlorotUniform", "config": {"seed": null}}, "bias_initializer": {"class_name": "Constant", "config": {"value": 0.2}}, "kernel_regularizer": null, "bias_regularizer": null, "activity_regularizer": null, "kernel_constraint": null, "bias_constraint": null}, "name": "conv_2d_1xS_96", "inbound_nodes": [[["input_1", 0, 0, {}]]]}, {"class_name": "TensorFlowOpLayer", "config": {"name": "concat_95", "trainable": true, "dtype": "float32", "node_def": {"name": "concat_95", "op": "ConcatV2", "input": ["concat_94", "conv_2d_1xS_96/Identity", "concat_95/axis"], "attr": {"Tidx": {"type": "DT_INT32"}, "T": {"type": "DT_FLOAT"}, "N": {"i": "2"}}}, "constants": {"2": 2}}, "name": "tf_op_layer_concat_95", "inbound_nodes": [[["tf_op_layer_concat_94", 0, 0, {}], ["conv_2d_1xS_96", 0, 0, {}]]]}, {"class_name": "Conv2D", "config": {"name": "conv_2d_1xS_97", "trainable": true, "dtype": "float32", "filters": 3, "kernel_size": [1, 1024], "strides": [1, 1], "padding": "valid", "data_format": "channels_last", "dilation_rate": [1, 1], "activation": "relu", "use_bias": true, "kernel_initializer": {"class_name": "GlorotUniform", "config": {"seed": null}}, "bias_initializer": {"class_name": "Constant", "config": {"value": 0.2}}, "kernel_regularizer": null, "bias_regularizer": null, "activity_regularizer": null, "kernel_constraint": null, "bias_constraint": null}, "name": "conv_2d_1xS_97", "inbound_nodes": [[["input_1", 0, 0, {}]]]}, {"class_name": "TensorFlowOpLayer", "config": {"name": "concat_96", "trainable": true, "dtype": "float32", "node_def": {"name": "concat_96", "op": "ConcatV2", "input": ["concat_95", "conv_2d_1xS_97/Identity", "concat_96/axis"], "attr": {"Tidx": {"type": "DT_INT32"}, "T": {"type": "DT_FLOAT"}, "N": {"i": "2"}}}, "constants": {"2": 2}}, "name": "tf_op_layer_concat_96", "inbound_nodes": [[["tf_op_layer_concat_95", 0, 0, {}], ["conv_2d_1xS_97", 0, 0, {}]]]}, {"class_name": "Conv2D", "config": {"name": "conv_2d_1xS_98", "trainable": true, "dtype": "float32", "filters": 3, "kernel_size": [1, 1024], "strides": [1, 1], "padding": "valid", "data_format": "channels_last", "dilation_rate": [1, 1], "activation": "relu", "use_bias": true, "kernel_initializer": {"class_name": "GlorotUniform", "config": {"seed": null}}, "bias_initializer": {"class_name": "Constant", "config": {"value": 0.2}}, "kernel_regularizer": null, "bias_regularizer": null, "activity_regularizer": null, "kernel_constraint": null, "bias_constraint": null}, "name": "conv_2d_1xS_98", "inbound_nodes": [[["input_1", 0, 0, {}]]]}, {"class_name": "TensorFlowOpLayer", "config": {"name": "concat_97", "trainable": true, "dtype": "float32", "node_def": {"name": "concat_97", "op": "ConcatV2", "input": ["concat_96", "conv_2d_1xS_98/Identity", "concat_97/axis"], "attr": {"Tidx": {"type": "DT_INT32"}, "T": {"type": "DT_FLOAT"}, "N": {"i": "2"}}}, "constants": {"2": 2}}, "name": "tf_op_layer_concat_97", "inbound_nodes": [[["tf_op_layer_concat_96", 0, 0, {}], ["conv_2d_1xS_98", 0, 0, {}]]]}, {"class_name": "Conv2D", "config": {"name": "conv_2d_1xS_99", "trainable": true, "dtype": "float32", "filters": 3, "kernel_size": [1, 1024], "strides": [1, 1], "padding": "valid", "data_format": "channels_last", "dilation_rate": [1, 1], "activation": "relu", "use_bias": true, "kernel_initializer": {"class_name": "GlorotUniform", "config": {"seed": null}}, "bias_initializer": {"class_name": "Constant", "config": {"value": 0.2}}, "kernel_regularizer": null, "bias_regularizer": null, "activity_regularizer": null, "kernel_constraint": null, "bias_constraint": null}, "name": "conv_2d_1xS_99", "inbound_nodes": [[["input_1", 0, 0, {}]]]}, {"class_name": "TensorFlowOpLayer", "config": {"name": "concat_98", "trainable": true, "dtype": "float32", "node_def": {"name": "concat_98", "op": "ConcatV2", "input": ["concat_97", "conv_2d_1xS_99/Identity", "concat_98/axis"], "attr": {"Tidx": {"type": "DT_INT32"}, "T": {"type": "DT_FLOAT"}, "N": {"i": "2"}}}, "constants": {"2": 2}}, "name": "tf_op_layer_concat_98", "inbound_nodes": [[["tf_op_layer_concat_97", 0, 0, {}], ["conv_2d_1xS_99", 0, 0, {}]]]}, {"class_name": "Conv2D", "config": {"name": "conv_2d_1xS_100", "trainable": true, "dtype": "float32", "filters": 3, "kernel_size": [1, 1024], "strides": [1, 1], "padding": "valid", "data_format": "channels_last", "dilation_rate": [1, 1], "activation": "relu", "use_bias": true, "kernel_initializer": {"class_name": "GlorotUniform", "config": {"seed": null}}, "bias_initializer": {"class_name": "Constant", "config": {"value": 0.2}}, "kernel_regularizer": null, "bias_regularizer": null, "activity_regularizer": null, "kernel_constraint": null, "bias_constraint": null}, "name": "conv_2d_1xS_100", "inbound_nodes": [[["input_1", 0, 0, {}]]]}, {"class_name": "TensorFlowOpLayer", "config": {"name": "concat_99", "trainable": true, "dtype": "float32", "node_def": {"name": "concat_99", "op": "ConcatV2", "input": ["concat_98", "conv_2d_1xS_100/Identity", "concat_99/axis"], "attr": {"Tidx": {"type": "DT_INT32"}, "T": {"type": "DT_FLOAT"}, "N": {"i": "2"}}}, "constants": {"2": 2}}, "name": "tf_op_layer_concat_99", "inbound_nodes": [[["tf_op_layer_concat_98", 0, 0, {}], ["conv_2d_1xS_100", 0, 0, {}]]]}, {"class_name": "Conv2D", "config": {"name": "conv_2d_1xS_101", "trainable": true, "dtype": "float32", "filters": 3, "kernel_size": [1, 1024], "strides": [1, 1], "padding": "valid", "data_format": "channels_last", "dilation_rate": [1, 1], "activation": "relu", "use_bias": true, "kernel_initializer": {"class_name": "GlorotUniform", "config": {"seed": null}}, "bias_initializer": {"class_name": "Constant", "config": {"value": 0.2}}, "kernel_regularizer": null, "bias_regularizer": null, "activity_regularizer": null, "kernel_constraint": null, "bias_constraint": null}, "name": "conv_2d_1xS_101", "inbound_nodes": [[["input_1", 0, 0, {}]]]}, {"class_name": "TensorFlowOpLayer", "config": {"name": "concat_100", "trainable": true, "dtype": "float32", "node_def": {"name": "concat_100", "op": "ConcatV2", "input": ["concat_99", "conv_2d_1xS_101/Identity", "concat_100/axis"], "attr": {"Tidx": {"type": "DT_INT32"}, "T": {"type": "DT_FLOAT"}, "N": {"i": "2"}}}, "constants": {"2": 2}}, "name": "tf_op_layer_concat_100", "inbound_nodes": [[["tf_op_layer_concat_99", 0, 0, {}], ["conv_2d_1xS_101", 0, 0, {}]]]}, {"class_name": "Conv2D", "config": {"name": "conv_2d_1xS_102", "trainable": true, "dtype": "float32", "filters": 3, "kernel_size": [1, 1024], "strides": [1, 1], "padding": "valid", "data_format": "channels_last", "dilation_rate": [1, 1], "activation": "relu", "use_bias": true, "kernel_initializer": {"class_name": "GlorotUniform", "config": {"seed": null}}, "bias_initializer": {"class_name": "Constant", "config": {"value": 0.2}}, "kernel_regularizer": null, "bias_regularizer": null, "activity_regularizer": null, "kernel_constraint": null, "bias_constraint": null}, "name": "conv_2d_1xS_102", "inbound_nodes": [[["input_1", 0, 0, {}]]]}, {"class_name": "TensorFlowOpLayer", "config": {"name": "concat_101", "trainable": true, "dtype": "float32", "node_def": {"name": "concat_101", "op": "ConcatV2", "input": ["concat_100", "conv_2d_1xS_102/Identity", "concat_101/axis"], "attr": {"Tidx": {"type": "DT_INT32"}, "T": {"type": "DT_FLOAT"}, "N": {"i": "2"}}}, "constants": {"2": 2}}, "name": "tf_op_layer_concat_101", "inbound_nodes": [[["tf_op_layer_concat_100", 0, 0, {}], ["conv_2d_1xS_102", 0, 0, {}]]]}, {"class_name": "Conv2D", "config": {"name": "conv_2d_1xS_103", "trainable": true, "dtype": "float32", "filters": 3, "kernel_size": [1, 1024], "strides": [1, 1], "padding": "valid", "data_format": "channels_last", "dilation_rate": [1, 1], "activation": "relu", "use_bias": true, "kernel_initializer": {"class_name": "GlorotUniform", "config": {"seed": null}}, "bias_initializer": {"class_name": "Constant", "config": {"value": 0.2}}, "kernel_regularizer": null, "bias_regularizer": null, "activity_regularizer": null, "kernel_constraint": null, "bias_constraint": null}, "name": "conv_2d_1xS_103", "inbound_nodes": [[["input_1", 0, 0, {}]]]}, {"class_name": "TensorFlowOpLayer", "config": {"name": "concat_102", "trainable": true, "dtype": "float32", "node_def": {"name": "concat_102", "op": "ConcatV2", "input": ["concat_101", "conv_2d_1xS_103/Identity", "concat_102/axis"], "attr": {"Tidx": {"type": "DT_INT32"}, "T": {"type": "DT_FLOAT"}, "N": {"i": "2"}}}, "constants": {"2": 2}}, "name": "tf_op_layer_concat_102", "inbound_nodes": [[["tf_op_layer_concat_101", 0, 0, {}], ["conv_2d_1xS_103", 0, 0, {}]]]}, {"class_name": "Conv2D", "config": {"name": "conv_2d_1xS_104", "trainable": true, "dtype": "float32", "filters": 3, "kernel_size": [1, 1024], "strides": [1, 1], "padding": "valid", "data_format": "channels_last", "dilation_rate": [1, 1], "activation": "relu", "use_bias": true, "kernel_initializer": {"class_name": "GlorotUniform", "config": {"seed": null}}, "bias_initializer": {"class_name": "Constant", "config": {"value": 0.2}}, "kernel_regularizer": null, "bias_regularizer": null, "activity_regularizer": null, "kernel_constraint": null, "bias_constraint": null}, "name": "conv_2d_1xS_104", "inbound_nodes": [[["input_1", 0, 0, {}]]]}, {"class_name": "TensorFlowOpLayer", "config": {"name": "concat_103", "trainable": true, "dtype": "float32", "node_def": {"name": "concat_103", "op": "ConcatV2", "input": ["concat_102", "conv_2d_1xS_104/Identity", "concat_103/axis"], "attr": {"Tidx": {"type": "DT_INT32"}, "T": {"type": "DT_FLOAT"}, "N": {"i": "2"}}}, "constants": {"2": 2}}, "name": "tf_op_layer_concat_103", "inbound_nodes": [[["tf_op_layer_concat_102", 0, 0, {}], ["conv_2d_1xS_104", 0, 0, {}]]]}, {"class_name": "Conv2D", "config": {"name": "conv_2d_1xS_105", "trainable": true, "dtype": "float32", "filters": 3, "kernel_size": [1, 1024], "strides": [1, 1], "padding": "valid", "data_format": "channels_last", "dilation_rate": [1, 1], "activation": "relu", "use_bias": true, "kernel_initializer": {"class_name": "GlorotUniform", "config": {"seed": null}}, "bias_initializer": {"class_name": "Constant", "config": {"value": 0.2}}, "kernel_regularizer": null, "bias_regularizer": null, "activity_regularizer": null, "kernel_constraint": null, "bias_constraint": null}, "name": "conv_2d_1xS_105", "inbound_nodes": [[["input_1", 0, 0, {}]]]}, {"class_name": "TensorFlowOpLayer", "config": {"name": "concat_104", "trainable": true, "dtype": "float32", "node_def": {"name": "concat_104", "op": "ConcatV2", "input": ["concat_103", "conv_2d_1xS_105/Identity", "concat_104/axis"], "attr": {"Tidx": {"type": "DT_INT32"}, "T": {"type": "DT_FLOAT"}, "N": {"i": "2"}}}, "constants": {"2": 2}}, "name": "tf_op_layer_concat_104", "inbound_nodes": [[["tf_op_layer_concat_103", 0, 0, {}], ["conv_2d_1xS_105", 0, 0, {}]]]}, {"class_name": "Conv2D", "config": {"name": "conv_2d_1xS_106", "trainable": true, "dtype": "float32", "filters": 3, "kernel_size": [1, 1024], "strides": [1, 1], "padding": "valid", "data_format": "channels_last", "dilation_rate": [1, 1], "activation": "relu", "use_bias": true, "kernel_initializer": {"class_name": "GlorotUniform", "config": {"seed": null}}, "bias_initializer": {"class_name": "Constant", "config": {"value": 0.2}}, "kernel_regularizer": null, "bias_regularizer": null, "activity_regularizer": null, "kernel_constraint": null, "bias_constraint": null}, "name": "conv_2d_1xS_106", "inbound_nodes": [[["input_1", 0, 0, {}]]]}, {"class_name": "TensorFlowOpLayer", "config": {"name": "concat_105", "trainable": true, "dtype": "float32", "node_def": {"name": "concat_105", "op": "ConcatV2", "input": ["concat_104", "conv_2d_1xS_106/Identity", "concat_105/axis"], "attr": {"Tidx": {"type": "DT_INT32"}, "T": {"type": "DT_FLOAT"}, "N": {"i": "2"}}}, "constants": {"2": 2}}, "name": "tf_op_layer_concat_105", "inbound_nodes": [[["tf_op_layer_concat_104", 0, 0, {}], ["conv_2d_1xS_106", 0, 0, {}]]]}, {"class_name": "Conv2D", "config": {"name": "conv_2d_1xS_107", "trainable": true, "dtype": "float32", "filters": 3, "kernel_size": [1, 1024], "strides": [1, 1], "padding": "valid", "data_format": "channels_last", "dilation_rate": [1, 1], "activation": "relu", "use_bias": true, "kernel_initializer": {"class_name": "GlorotUniform", "config": {"seed": null}}, "bias_initializer": {"class_name": "Constant", "config": {"value": 0.2}}, "kernel_regularizer": null, "bias_regularizer": null, "activity_regularizer": null, "kernel_constraint": null, "bias_constraint": null}, "name": "conv_2d_1xS_107", "inbound_nodes": [[["input_1", 0, 0, {}]]]}, {"class_name": "TensorFlowOpLayer", "config": {"name": "concat_106", "trainable": true, "dtype": "float32", "node_def": {"name": "concat_106", "op": "ConcatV2", "input": ["concat_105", "conv_2d_1xS_107/Identity", "concat_106/axis"], "attr": {"Tidx": {"type": "DT_INT32"}, "T": {"type": "DT_FLOAT"}, "N": {"i": "2"}}}, "constants": {"2": 2}}, "name": "tf_op_layer_concat_106", "inbound_nodes": [[["tf_op_layer_concat_105", 0, 0, {}], ["conv_2d_1xS_107", 0, 0, {}]]]}, {"class_name": "Conv2D", "config": {"name": "conv_2d_1xS_108", "trainable": true, "dtype": "float32", "filters": 3, "kernel_size": [1, 1024], "strides": [1, 1], "padding": "valid", "data_format": "channels_last", "dilation_rate": [1, 1], "activation": "relu", "use_bias": true, "kernel_initializer": {"class_name": "GlorotUniform", "config": {"seed": null}}, "bias_initializer": {"class_name": "Constant", "config": {"value": 0.2}}, "kernel_regularizer": null, "bias_regularizer": null, "activity_regularizer": null, "kernel_constraint": null, "bias_constraint": null}, "name": "conv_2d_1xS_108", "inbound_nodes": [[["input_1", 0, 0, {}]]]}, {"class_name": "TensorFlowOpLayer", "config": {"name": "concat_107", "trainable": true, "dtype": "float32", "node_def": {"name": "concat_107", "op": "ConcatV2", "input": ["concat_106", "conv_2d_1xS_108/Identity", "concat_107/axis"], "attr": {"Tidx": {"type": "DT_INT32"}, "T": {"type": "DT_FLOAT"}, "N": {"i": "2"}}}, "constants": {"2": 2}}, "name": "tf_op_layer_concat_107", "inbound_nodes": [[["tf_op_layer_concat_106", 0, 0, {}], ["conv_2d_1xS_108", 0, 0, {}]]]}, {"class_name": "Conv2D", "config": {"name": "conv_2d_1xS_109", "trainable": true, "dtype": "float32", "filters": 3, "kernel_size": [1, 1024], "strides": [1, 1], "padding": "valid", "data_format": "channels_last", "dilation_rate": [1, 1], "activation": "relu", "use_bias": true, "kernel_initializer": {"class_name": "GlorotUniform", "config": {"seed": null}}, "bias_initializer": {"class_name": "Constant", "config": {"value": 0.2}}, "kernel_regularizer": null, "bias_regularizer": null, "activity_regularizer": null, "kernel_constraint": null, "bias_constraint": null}, "name": "conv_2d_1xS_109", "inbound_nodes": [[["input_1", 0, 0, {}]]]}, {"class_name": "TensorFlowOpLayer", "config": {"name": "concat_108", "trainable": true, "dtype": "float32", "node_def": {"name": "concat_108", "op": "ConcatV2", "input": ["concat_107", "conv_2d_1xS_109/Identity", "concat_108/axis"], "attr": {"Tidx": {"type": "DT_INT32"}, "T": {"type": "DT_FLOAT"}, "N": {"i": "2"}}}, "constants": {"2": 2}}, "name": "tf_op_layer_concat_108", "inbound_nodes": [[["tf_op_layer_concat_107", 0, 0, {}], ["conv_2d_1xS_109", 0, 0, {}]]]}, {"class_name": "Conv2D", "config": {"name": "conv_2d_1xS_110", "trainable": true, "dtype": "float32", "filters": 3, "kernel_size": [1, 1024], "strides": [1, 1], "padding": "valid", "data_format": "channels_last", "dilation_rate": [1, 1], "activation": "relu", "use_bias": true, "kernel_initializer": {"class_name": "GlorotUniform", "config": {"seed": null}}, "bias_initializer": {"class_name": "Constant", "config": {"value": 0.2}}, "kernel_regularizer": null, "bias_regularizer": null, "activity_regularizer": null, "kernel_constraint": null, "bias_constraint": null}, "name": "conv_2d_1xS_110", "inbound_nodes": [[["input_1", 0, 0, {}]]]}, {"class_name": "TensorFlowOpLayer", "config": {"name": "concat_109", "trainable": true, "dtype": "float32", "node_def": {"name": "concat_109", "op": "ConcatV2", "input": ["concat_108", "conv_2d_1xS_110/Identity", "concat_109/axis"], "attr": {"Tidx": {"type": "DT_INT32"}, "T": {"type": "DT_FLOAT"}, "N": {"i": "2"}}}, "constants": {"2": 2}}, "name": "tf_op_layer_concat_109", "inbound_nodes": [[["tf_op_layer_concat_108", 0, 0, {}], ["conv_2d_1xS_110", 0, 0, {}]]]}, {"class_name": "Conv2D", "config": {"name": "conv_2d_1xS_111", "trainable": true, "dtype": "float32", "filters": 3, "kernel_size": [1, 1024], "strides": [1, 1], "padding": "valid", "data_format": "channels_last", "dilation_rate": [1, 1], "activation": "relu", "use_bias": true, "kernel_initializer": {"class_name": "GlorotUniform", "config": {"seed": null}}, "bias_initializer": {"class_name": "Constant", "config": {"value": 0.2}}, "kernel_regularizer": null, "bias_regularizer": null, "activity_regularizer": null, "kernel_constraint": null, "bias_constraint": null}, "name": "conv_2d_1xS_111", "inbound_nodes": [[["input_1", 0, 0, {}]]]}, {"class_name": "TensorFlowOpLayer", "config": {"name": "concat_110", "trainable": true, "dtype": "float32", "node_def": {"name": "concat_110", "op": "ConcatV2", "input": ["concat_109", "conv_2d_1xS_111/Identity", "concat_110/axis"], "attr": {"Tidx": {"type": "DT_INT32"}, "T": {"type": "DT_FLOAT"}, "N": {"i": "2"}}}, "constants": {"2": 2}}, "name": "tf_op_layer_concat_110", "inbound_nodes": [[["tf_op_layer_concat_109", 0, 0, {}], ["conv_2d_1xS_111", 0, 0, {}]]]}, {"class_name": "Conv2D", "config": {"name": "conv_2d_1xS_112", "trainable": true, "dtype": "float32", "filters": 3, "kernel_size": [1, 1024], "strides": [1, 1], "padding": "valid", "data_format": "channels_last", "dilation_rate": [1, 1], "activation": "relu", "use_bias": true, "kernel_initializer": {"class_name": "GlorotUniform", "config": {"seed": null}}, "bias_initializer": {"class_name": "Constant", "config": {"value": 0.2}}, "kernel_regularizer": null, "bias_regularizer": null, "activity_regularizer": null, "kernel_constraint": null, "bias_constraint": null}, "name": "conv_2d_1xS_112", "inbound_nodes": [[["input_1", 0, 0, {}]]]}, {"class_name": "TensorFlowOpLayer", "config": {"name": "concat_111", "trainable": true, "dtype": "float32", "node_def": {"name": "concat_111", "op": "ConcatV2", "input": ["concat_110", "conv_2d_1xS_112/Identity", "concat_111/axis"], "attr": {"Tidx": {"type": "DT_INT32"}, "T": {"type": "DT_FLOAT"}, "N": {"i": "2"}}}, "constants": {"2": 2}}, "name": "tf_op_layer_concat_111", "inbound_nodes": [[["tf_op_layer_concat_110", 0, 0, {}], ["conv_2d_1xS_112", 0, 0, {}]]]}, {"class_name": "Conv2D", "config": {"name": "conv_2d_1xS_113", "trainable": true, "dtype": "float32", "filters": 3, "kernel_size": [1, 1024], "strides": [1, 1], "padding": "valid", "data_format": "channels_last", "dilation_rate": [1, 1], "activation": "relu", "use_bias": true, "kernel_initializer": {"class_name": "GlorotUniform", "config": {"seed": null}}, "bias_initializer": {"class_name": "Constant", "config": {"value": 0.2}}, "kernel_regularizer": null, "bias_regularizer": null, "activity_regularizer": null, "kernel_constraint": null, "bias_constraint": null}, "name": "conv_2d_1xS_113", "inbound_nodes": [[["input_1", 0, 0, {}]]]}, {"class_name": "TensorFlowOpLayer", "config": {"name": "concat_112", "trainable": true, "dtype": "float32", "node_def": {"name": "concat_112", "op": "ConcatV2", "input": ["concat_111", "conv_2d_1xS_113/Identity", "concat_112/axis"], "attr": {"Tidx": {"type": "DT_INT32"}, "T": {"type": "DT_FLOAT"}, "N": {"i": "2"}}}, "constants": {"2": 2}}, "name": "tf_op_layer_concat_112", "inbound_nodes": [[["tf_op_layer_concat_111", 0, 0, {}], ["conv_2d_1xS_113", 0, 0, {}]]]}, {"class_name": "Conv2D", "config": {"name": "conv_2d_1xS_114", "trainable": true, "dtype": "float32", "filters": 3, "kernel_size": [1, 1024], "strides": [1, 1], "padding": "valid", "data_format": "channels_last", "dilation_rate": [1, 1], "activation": "relu", "use_bias": true, "kernel_initializer": {"class_name": "GlorotUniform", "config": {"seed": null}}, "bias_initializer": {"class_name": "Constant", "config": {"value": 0.2}}, "kernel_regularizer": null, "bias_regularizer": null, "activity_regularizer": null, "kernel_constraint": null, "bias_constraint": null}, "name": "conv_2d_1xS_114", "inbound_nodes": [[["input_1", 0, 0, {}]]]}, {"class_name": "TensorFlowOpLayer", "config": {"name": "concat_113", "trainable": true, "dtype": "float32", "node_def": {"name": "concat_113", "op": "ConcatV2", "input": ["concat_112", "conv_2d_1xS_114/Identity", "concat_113/axis"], "attr": {"Tidx": {"type": "DT_INT32"}, "T": {"type": "DT_FLOAT"}, "N": {"i": "2"}}}, "constants": {"2": 2}}, "name": "tf_op_layer_concat_113", "inbound_nodes": [[["tf_op_layer_concat_112", 0, 0, {}], ["conv_2d_1xS_114", 0, 0, {}]]]}, {"class_name": "Conv2D", "config": {"name": "conv_2d_1xS_115", "trainable": true, "dtype": "float32", "filters": 3, "kernel_size": [1, 1024], "strides": [1, 1], "padding": "valid", "data_format": "channels_last", "dilation_rate": [1, 1], "activation": "relu", "use_bias": true, "kernel_initializer": {"class_name": "GlorotUniform", "config": {"seed": null}}, "bias_initializer": {"class_name": "Constant", "config": {"value": 0.2}}, "kernel_regularizer": null, "bias_regularizer": null, "activity_regularizer": null, "kernel_constraint": null, "bias_constraint": null}, "name": "conv_2d_1xS_115", "inbound_nodes": [[["input_1", 0, 0, {}]]]}, {"class_name": "TensorFlowOpLayer", "config": {"name": "concat_114", "trainable": true, "dtype": "float32", "node_def": {"name": "concat_114", "op": "ConcatV2", "input": ["concat_113", "conv_2d_1xS_115/Identity", "concat_114/axis"], "attr": {"Tidx": {"type": "DT_INT32"}, "T": {"type": "DT_FLOAT"}, "N": {"i": "2"}}}, "constants": {"2": 2}}, "name": "tf_op_layer_concat_114", "inbound_nodes": [[["tf_op_layer_concat_113", 0, 0, {}], ["conv_2d_1xS_115", 0, 0, {}]]]}, {"class_name": "Conv2D", "config": {"name": "conv_2d_1xS_116", "trainable": true, "dtype": "float32", "filters": 3, "kernel_size": [1, 1024], "strides": [1, 1], "padding": "valid", "data_format": "channels_last", "dilation_rate": [1, 1], "activation": "relu", "use_bias": true, "kernel_initializer": {"class_name": "GlorotUniform", "config": {"seed": null}}, "bias_initializer": {"class_name": "Constant", "config": {"value": 0.2}}, "kernel_regularizer": null, "bias_regularizer": null, "activity_regularizer": null, "kernel_constraint": null, "bias_constraint": null}, "name": "conv_2d_1xS_116", "inbound_nodes": [[["input_1", 0, 0, {}]]]}, {"class_name": "TensorFlowOpLayer", "config": {"name": "concat_115", "trainable": true, "dtype": "float32", "node_def": {"name": "concat_115", "op": "ConcatV2", "input": ["concat_114", "conv_2d_1xS_116/Identity", "concat_115/axis"], "attr": {"Tidx": {"type": "DT_INT32"}, "T": {"type": "DT_FLOAT"}, "N": {"i": "2"}}}, "constants": {"2": 2}}, "name": "tf_op_layer_concat_115", "inbound_nodes": [[["tf_op_layer_concat_114", 0, 0, {}], ["conv_2d_1xS_116", 0, 0, {}]]]}, {"class_name": "Conv2D", "config": {"name": "conv_2d_1xS_117", "trainable": true, "dtype": "float32", "filters": 3, "kernel_size": [1, 1024], "strides": [1, 1], "padding": "valid", "data_format": "channels_last", "dilation_rate": [1, 1], "activation": "relu", "use_bias": true, "kernel_initializer": {"class_name": "GlorotUniform", "config": {"seed": null}}, "bias_initializer": {"class_name": "Constant", "config": {"value": 0.2}}, "kernel_regularizer": null, "bias_regularizer": null, "activity_regularizer": null, "kernel_constraint": null, "bias_constraint": null}, "name": "conv_2d_1xS_117", "inbound_nodes": [[["input_1", 0, 0, {}]]]}, {"class_name": "TensorFlowOpLayer", "config": {"name": "concat_116", "trainable": true, "dtype": "float32", "node_def": {"name": "concat_116", "op": "ConcatV2", "input": ["concat_115", "conv_2d_1xS_117/Identity", "concat_116/axis"], "attr": {"Tidx": {"type": "DT_INT32"}, "T": {"type": "DT_FLOAT"}, "N": {"i": "2"}}}, "constants": {"2": 2}}, "name": "tf_op_layer_concat_116", "inbound_nodes": [[["tf_op_layer_concat_115", 0, 0, {}], ["conv_2d_1xS_117", 0, 0, {}]]]}, {"class_name": "Conv2D", "config": {"name": "conv_2d_1xS_118", "trainable": true, "dtype": "float32", "filters": 3, "kernel_size": [1, 1024], "strides": [1, 1], "padding": "valid", "data_format": "channels_last", "dilation_rate": [1, 1], "activation": "relu", "use_bias": true, "kernel_initializer": {"class_name": "GlorotUniform", "config": {"seed": null}}, "bias_initializer": {"class_name": "Constant", "config": {"value": 0.2}}, "kernel_regularizer": null, "bias_regularizer": null, "activity_regularizer": null, "kernel_constraint": null, "bias_constraint": null}, "name": "conv_2d_1xS_118", "inbound_nodes": [[["input_1", 0, 0, {}]]]}, {"class_name": "TensorFlowOpLayer", "config": {"name": "concat_117", "trainable": true, "dtype": "float32", "node_def": {"name": "concat_117", "op": "ConcatV2", "input": ["concat_116", "conv_2d_1xS_118/Identity", "concat_117/axis"], "attr": {"Tidx": {"type": "DT_INT32"}, "T": {"type": "DT_FLOAT"}, "N": {"i": "2"}}}, "constants": {"2": 2}}, "name": "tf_op_layer_concat_117", "inbound_nodes": [[["tf_op_layer_concat_116", 0, 0, {}], ["conv_2d_1xS_118", 0, 0, {}]]]}, {"class_name": "Conv2D", "config": {"name": "conv_2d_1xS_119", "trainable": true, "dtype": "float32", "filters": 3, "kernel_size": [1, 1024], "strides": [1, 1], "padding": "valid", "data_format": "channels_last", "dilation_rate": [1, 1], "activation": "relu", "use_bias": true, "kernel_initializer": {"class_name": "GlorotUniform", "config": {"seed": null}}, "bias_initializer": {"class_name": "Constant", "config": {"value": 0.2}}, "kernel_regularizer": null, "bias_regularizer": null, "activity_regularizer": null, "kernel_constraint": null, "bias_constraint": null}, "name": "conv_2d_1xS_119", "inbound_nodes": [[["input_1", 0, 0, {}]]]}, {"class_name": "TensorFlowOpLayer", "config": {"name": "concat_118", "trainable": true, "dtype": "float32", "node_def": {"name": "concat_118", "op": "ConcatV2", "input": ["concat_117", "conv_2d_1xS_119/Identity", "concat_118/axis"], "attr": {"Tidx": {"type": "DT_INT32"}, "T": {"type": "DT_FLOAT"}, "N": {"i": "2"}}}, "constants": {"2": 2}}, "name": "tf_op_layer_concat_118", "inbound_nodes": [[["tf_op_layer_concat_117", 0, 0, {}], ["conv_2d_1xS_119", 0, 0, {}]]]}, {"class_name": "Conv2D", "config": {"name": "conv_2d_1xS_120", "trainable": true, "dtype": "float32", "filters": 3, "kernel_size": [1, 1024], "strides": [1, 1], "padding": "valid", "data_format": "channels_last", "dilation_rate": [1, 1], "activation": "relu", "use_bias": true, "kernel_initializer": {"class_name": "GlorotUniform", "config": {"seed": null}}, "bias_initializer": {"class_name": "Constant", "config": {"value": 0.2}}, "kernel_regularizer": null, "bias_regularizer": null, "activity_regularizer": null, "kernel_constraint": null, "bias_constraint": null}, "name": "conv_2d_1xS_120", "inbound_nodes": [[["input_1", 0, 0, {}]]]}, {"class_name": "TensorFlowOpLayer", "config": {"name": "concat_119", "trainable": true, "dtype": "float32", "node_def": {"name": "concat_119", "op": "ConcatV2", "input": ["concat_118", "conv_2d_1xS_120/Identity", "concat_119/axis"], "attr": {"Tidx": {"type": "DT_INT32"}, "T": {"type": "DT_FLOAT"}, "N": {"i": "2"}}}, "constants": {"2": 2}}, "name": "tf_op_layer_concat_119", "inbound_nodes": [[["tf_op_layer_concat_118", 0, 0, {}], ["conv_2d_1xS_120", 0, 0, {}]]]}, {"class_name": "Conv2D", "config": {"name": "conv_2d_1xS_121", "trainable": true, "dtype": "float32", "filters": 3, "kernel_size": [1, 1024], "strides": [1, 1], "padding": "valid", "data_format": "channels_last", "dilation_rate": [1, 1], "activation": "relu", "use_bias": true, "kernel_initializer": {"class_name": "GlorotUniform", "config": {"seed": null}}, "bias_initializer": {"class_name": "Constant", "config": {"value": 0.2}}, "kernel_regularizer": null, "bias_regularizer": null, "activity_regularizer": null, "kernel_constraint": null, "bias_constraint": null}, "name": "conv_2d_1xS_121", "inbound_nodes": [[["input_1", 0, 0, {}]]]}, {"class_name": "TensorFlowOpLayer", "config": {"name": "concat_120", "trainable": true, "dtype": "float32", "node_def": {"name": "concat_120", "op": "ConcatV2", "input": ["concat_119", "conv_2d_1xS_121/Identity", "concat_120/axis"], "attr": {"Tidx": {"type": "DT_INT32"}, "T": {"type": "DT_FLOAT"}, "N": {"i": "2"}}}, "constants": {"2": 2}}, "name": "tf_op_layer_concat_120", "inbound_nodes": [[["tf_op_layer_concat_119", 0, 0, {}], ["conv_2d_1xS_121", 0, 0, {}]]]}, {"class_name": "Conv2D", "config": {"name": "conv_2d_1xS_122", "trainable": true, "dtype": "float32", "filters": 3, "kernel_size": [1, 1024], "strides": [1, 1], "padding": "valid", "data_format": "channels_last", "dilation_rate": [1, 1], "activation": "relu", "use_bias": true, "kernel_initializer": {"class_name": "GlorotUniform", "config": {"seed": null}}, "bias_initializer": {"class_name": "Constant", "config": {"value": 0.2}}, "kernel_regularizer": null, "bias_regularizer": null, "activity_regularizer": null, "kernel_constraint": null, "bias_constraint": null}, "name": "conv_2d_1xS_122", "inbound_nodes": [[["input_1", 0, 0, {}]]]}, {"class_name": "TensorFlowOpLayer", "config": {"name": "concat_121", "trainable": true, "dtype": "float32", "node_def": {"name": "concat_121", "op": "ConcatV2", "input": ["concat_120", "conv_2d_1xS_122/Identity", "concat_121/axis"], "attr": {"Tidx": {"type": "DT_INT32"}, "T": {"type": "DT_FLOAT"}, "N": {"i": "2"}}}, "constants": {"2": 2}}, "name": "tf_op_layer_concat_121", "inbound_nodes": [[["tf_op_layer_concat_120", 0, 0, {}], ["conv_2d_1xS_122", 0, 0, {}]]]}, {"class_name": "Conv2D", "config": {"name": "conv_2d_1xS_123", "trainable": true, "dtype": "float32", "filters": 3, "kernel_size": [1, 1024], "strides": [1, 1], "padding": "valid", "data_format": "channels_last", "dilation_rate": [1, 1], "activation": "relu", "use_bias": true, "kernel_initializer": {"class_name": "GlorotUniform", "config": {"seed": null}}, "bias_initializer": {"class_name": "Constant", "config": {"value": 0.2}}, "kernel_regularizer": null, "bias_regularizer": null, "activity_regularizer": null, "kernel_constraint": null, "bias_constraint": null}, "name": "conv_2d_1xS_123", "inbound_nodes": [[["input_1", 0, 0, {}]]]}, {"class_name": "TensorFlowOpLayer", "config": {"name": "concat_122", "trainable": true, "dtype": "float32", "node_def": {"name": "concat_122", "op": "ConcatV2", "input": ["concat_121", "conv_2d_1xS_123/Identity", "concat_122/axis"], "attr": {"Tidx": {"type": "DT_INT32"}, "T": {"type": "DT_FLOAT"}, "N": {"i": "2"}}}, "constants": {"2": 2}}, "name": "tf_op_layer_concat_122", "inbound_nodes": [[["tf_op_layer_concat_121", 0, 0, {}], ["conv_2d_1xS_123", 0, 0, {}]]]}, {"class_name": "Conv2D", "config": {"name": "conv_2d_1xS_124", "trainable": true, "dtype": "float32", "filters": 3, "kernel_size": [1, 1024], "strides": [1, 1], "padding": "valid", "data_format": "channels_last", "dilation_rate": [1, 1], "activation": "relu", "use_bias": true, "kernel_initializer": {"class_name": "GlorotUniform", "config": {"seed": null}}, "bias_initializer": {"class_name": "Constant", "config": {"value": 0.2}}, "kernel_regularizer": null, "bias_regularizer": null, "activity_regularizer": null, "kernel_constraint": null, "bias_constraint": null}, "name": "conv_2d_1xS_124", "inbound_nodes": [[["input_1", 0, 0, {}]]]}, {"class_name": "TensorFlowOpLayer", "config": {"name": "concat_123", "trainable": true, "dtype": "float32", "node_def": {"name": "concat_123", "op": "ConcatV2", "input": ["concat_122", "conv_2d_1xS_124/Identity", "concat_123/axis"], "attr": {"Tidx": {"type": "DT_INT32"}, "T": {"type": "DT_FLOAT"}, "N": {"i": "2"}}}, "constants": {"2": 2}}, "name": "tf_op_layer_concat_123", "inbound_nodes": [[["tf_op_layer_concat_122", 0, 0, {}], ["conv_2d_1xS_124", 0, 0, {}]]]}, {"class_name": "Conv2D", "config": {"name": "conv_2d_1xS_125", "trainable": true, "dtype": "float32", "filters": 3, "kernel_size": [1, 1024], "strides": [1, 1], "padding": "valid", "data_format": "channels_last", "dilation_rate": [1, 1], "activation": "relu", "use_bias": true, "kernel_initializer": {"class_name": "GlorotUniform", "config": {"seed": null}}, "bias_initializer": {"class_name": "Constant", "config": {"value": 0.2}}, "kernel_regularizer": null, "bias_regularizer": null, "activity_regularizer": null, "kernel_constraint": null, "bias_constraint": null}, "name": "conv_2d_1xS_125", "inbound_nodes": [[["input_1", 0, 0, {}]]]}, {"class_name": "TensorFlowOpLayer", "config": {"name": "concat_124", "trainable": true, "dtype": "float32", "node_def": {"name": "concat_124", "op": "ConcatV2", "input": ["concat_123", "conv_2d_1xS_125/Identity", "concat_124/axis"], "attr": {"Tidx": {"type": "DT_INT32"}, "T": {"type": "DT_FLOAT"}, "N": {"i": "2"}}}, "constants": {"2": 2}}, "name": "tf_op_layer_concat_124", "inbound_nodes": [[["tf_op_layer_concat_123", 0, 0, {}], ["conv_2d_1xS_125", 0, 0, {}]]]}, {"class_name": "Conv2D", "config": {"name": "conv_2d_1xS_126", "trainable": true, "dtype": "float32", "filters": 3, "kernel_size": [1, 1024], "strides": [1, 1], "padding": "valid", "data_format": "channels_last", "dilation_rate": [1, 1], "activation": "relu", "use_bias": true, "kernel_initializer": {"class_name": "GlorotUniform", "config": {"seed": null}}, "bias_initializer": {"class_name": "Constant", "config": {"value": 0.2}}, "kernel_regularizer": null, "bias_regularizer": null, "activity_regularizer": null, "kernel_constraint": null, "bias_constraint": null}, "name": "conv_2d_1xS_126", "inbound_nodes": [[["input_1", 0, 0, {}]]]}, {"class_name": "TensorFlowOpLayer", "config": {"name": "concat_125", "trainable": true, "dtype": "float32", "node_def": {"name": "concat_125", "op": "ConcatV2", "input": ["concat_124", "conv_2d_1xS_126/Identity", "concat_125/axis"], "attr": {"Tidx": {"type": "DT_INT32"}, "T": {"type": "DT_FLOAT"}, "N": {"i": "2"}}}, "constants": {"2": 2}}, "name": "tf_op_layer_concat_125", "inbound_nodes": [[["tf_op_layer_concat_124", 0, 0, {}], ["conv_2d_1xS_126", 0, 0, {}]]]}, {"class_name": "Conv2D", "config": {"name": "conv_2d_1xS_127", "trainable": true, "dtype": "float32", "filters": 3, "kernel_size": [1, 1024], "strides": [1, 1], "padding": "valid", "data_format": "channels_last", "dilation_rate": [1, 1], "activation": "relu", "use_bias": true, "kernel_initializer": {"class_name": "GlorotUniform", "config": {"seed": null}}, "bias_initializer": {"class_name": "Constant", "config": {"value": 0.2}}, "kernel_regularizer": null, "bias_regularizer": null, "activity_regularizer": null, "kernel_constraint": null, "bias_constraint": null}, "name": "conv_2d_1xS_127", "inbound_nodes": [[["input_1", 0, 0, {}]]]}, {"class_name": "TensorFlowOpLayer", "config": {"name": "concat_126", "trainable": true, "dtype": "float32", "node_def": {"name": "concat_126", "op": "ConcatV2", "input": ["concat_125", "conv_2d_1xS_127/Identity", "concat_126/axis"], "attr": {"Tidx": {"type": "DT_INT32"}, "T": {"type": "DT_FLOAT"}, "N": {"i": "2"}}}, "constants": {"2": 2}}, "name": "tf_op_layer_concat_126", "inbound_nodes": [[["tf_op_layer_concat_125", 0, 0, {}], ["conv_2d_1xS_127", 0, 0, {}]]]}, {"class_name": "Conv2D", "config": {"name": "conv_2d_1xS_128", "trainable": true, "dtype": "float32", "filters": 3, "kernel_size": [1, 1024], "strides": [1, 1], "padding": "valid", "data_format": "channels_last", "dilation_rate": [1, 1], "activation": "relu", "use_bias": true, "kernel_initializer": {"class_name": "GlorotUniform", "config": {"seed": null}}, "bias_initializer": {"class_name": "Constant", "config": {"value": 0.2}}, "kernel_regularizer": null, "bias_regularizer": null, "activity_regularizer": null, "kernel_constraint": null, "bias_constraint": null}, "name": "conv_2d_1xS_128", "inbound_nodes": [[["input_1", 0, 0, {}]]]}, {"class_name": "TensorFlowOpLayer", "config": {"name": "concat_127", "trainable": true, "dtype": "float32", "node_def": {"name": "concat_127", "op": "ConcatV2", "input": ["concat_126", "conv_2d_1xS_128/Identity", "concat_127/axis"], "attr": {"Tidx": {"type": "DT_INT32"}, "T": {"type": "DT_FLOAT"}, "N": {"i": "2"}}}, "constants": {"2": 2}}, "name": "tf_op_layer_concat_127", "inbound_nodes": [[["tf_op_layer_concat_126", 0, 0, {}], ["conv_2d_1xS_128", 0, 0, {}]]]}, {"class_name": "Conv2D", "config": {"name": "conv_2d_1xS_129", "trainable": true, "dtype": "float32", "filters": 3, "kernel_size": [1, 1024], "strides": [1, 1], "padding": "valid", "data_format": "channels_last", "dilation_rate": [1, 1], "activation": "relu", "use_bias": true, "kernel_initializer": {"class_name": "GlorotUniform", "config": {"seed": null}}, "bias_initializer": {"class_name": "Constant", "config": {"value": 0.2}}, "kernel_regularizer": null, "bias_regularizer": null, "activity_regularizer": null, "kernel_constraint": null, "bias_constraint": null}, "name": "conv_2d_1xS_129", "inbound_nodes": [[["input_1", 0, 0, {}]]]}, {"class_name": "TensorFlowOpLayer", "config": {"name": "concat_128", "trainable": true, "dtype": "float32", "node_def": {"name": "concat_128", "op": "ConcatV2", "input": ["concat_127", "conv_2d_1xS_129/Identity", "concat_128/axis"], "attr": {"Tidx": {"type": "DT_INT32"}, "T": {"type": "DT_FLOAT"}, "N": {"i": "2"}}}, "constants": {"2": 2}}, "name": "tf_op_layer_concat_128", "inbound_nodes": [[["tf_op_layer_concat_127", 0, 0, {}], ["conv_2d_1xS_129", 0, 0, {}]]]}, {"class_name": "Conv2D", "config": {"name": "conv_2d_1xS_130", "trainable": true, "dtype": "float32", "filters": 3, "kernel_size": [1, 1024], "strides": [1, 1], "padding": "valid", "data_format": "channels_last", "dilation_rate": [1, 1], "activation": "relu", "use_bias": true, "kernel_initializer": {"class_name": "GlorotUniform", "config": {"seed": null}}, "bias_initializer": {"class_name": "Constant", "config": {"value": 0.2}}, "kernel_regularizer": null, "bias_regularizer": null, "activity_regularizer": null, "kernel_constraint": null, "bias_constraint": null}, "name": "conv_2d_1xS_130", "inbound_nodes": [[["input_1", 0, 0, {}]]]}, {"class_name": "TensorFlowOpLayer", "config": {"name": "concat_129", "trainable": true, "dtype": "float32", "node_def": {"name": "concat_129", "op": "ConcatV2", "input": ["concat_128", "conv_2d_1xS_130/Identity", "concat_129/axis"], "attr": {"Tidx": {"type": "DT_INT32"}, "T": {"type": "DT_FLOAT"}, "N": {"i": "2"}}}, "constants": {"2": 2}}, "name": "tf_op_layer_concat_129", "inbound_nodes": [[["tf_op_layer_concat_128", 0, 0, {}], ["conv_2d_1xS_130", 0, 0, {}]]]}, {"class_name": "Conv2D", "config": {"name": "conv_2d_1xS_131", "trainable": true, "dtype": "float32", "filters": 3, "kernel_size": [1, 1024], "strides": [1, 1], "padding": "valid", "data_format": "channels_last", "dilation_rate": [1, 1], "activation": "relu", "use_bias": true, "kernel_initializer": {"class_name": "GlorotUniform", "config": {"seed": null}}, "bias_initializer": {"class_name": "Constant", "config": {"value": 0.2}}, "kernel_regularizer": null, "bias_regularizer": null, "activity_regularizer": null, "kernel_constraint": null, "bias_constraint": null}, "name": "conv_2d_1xS_131", "inbound_nodes": [[["input_1", 0, 0, {}]]]}, {"class_name": "TensorFlowOpLayer", "config": {"name": "concat_130", "trainable": true, "dtype": "float32", "node_def": {"name": "concat_130", "op": "ConcatV2", "input": ["concat_129", "conv_2d_1xS_131/Identity", "concat_130/axis"], "attr": {"Tidx": {"type": "DT_INT32"}, "T": {"type": "DT_FLOAT"}, "N": {"i": "2"}}}, "constants": {"2": 2}}, "name": "tf_op_layer_concat_130", "inbound_nodes": [[["tf_op_layer_concat_129", 0, 0, {}], ["conv_2d_1xS_131", 0, 0, {}]]]}, {"class_name": "Conv2D", "config": {"name": "conv_2d_1xS_132", "trainable": true, "dtype": "float32", "filters": 3, "kernel_size": [1, 1024], "strides": [1, 1], "padding": "valid", "data_format": "channels_last", "dilation_rate": [1, 1], "activation": "relu", "use_bias": true, "kernel_initializer": {"class_name": "GlorotUniform", "config": {"seed": null}}, "bias_initializer": {"class_name": "Constant", "config": {"value": 0.2}}, "kernel_regularizer": null, "bias_regularizer": null, "activity_regularizer": null, "kernel_constraint": null, "bias_constraint": null}, "name": "conv_2d_1xS_132", "inbound_nodes": [[["input_1", 0, 0, {}]]]}, {"class_name": "TensorFlowOpLayer", "config": {"name": "concat_131", "trainable": true, "dtype": "float32", "node_def": {"name": "concat_131", "op": "ConcatV2", "input": ["concat_130", "conv_2d_1xS_132/Identity", "concat_131/axis"], "attr": {"Tidx": {"type": "DT_INT32"}, "T": {"type": "DT_FLOAT"}, "N": {"i": "2"}}}, "constants": {"2": 2}}, "name": "tf_op_layer_concat_131", "inbound_nodes": [[["tf_op_layer_concat_130", 0, 0, {}], ["conv_2d_1xS_132", 0, 0, {}]]]}, {"class_name": "Conv2D", "config": {"name": "conv_2d_1xS_133", "trainable": true, "dtype": "float32", "filters": 3, "kernel_size": [1, 1024], "strides": [1, 1], "padding": "valid", "data_format": "channels_last", "dilation_rate": [1, 1], "activation": "relu", "use_bias": true, "kernel_initializer": {"class_name": "GlorotUniform", "config": {"seed": null}}, "bias_initializer": {"class_name": "Constant", "config": {"value": 0.2}}, "kernel_regularizer": null, "bias_regularizer": null, "activity_regularizer": null, "kernel_constraint": null, "bias_constraint": null}, "name": "conv_2d_1xS_133", "inbound_nodes": [[["input_1", 0, 0, {}]]]}, {"class_name": "TensorFlowOpLayer", "config": {"name": "concat_132", "trainable": true, "dtype": "float32", "node_def": {"name": "concat_132", "op": "ConcatV2", "input": ["concat_131", "conv_2d_1xS_133/Identity", "concat_132/axis"], "attr": {"Tidx": {"type": "DT_INT32"}, "T": {"type": "DT_FLOAT"}, "N": {"i": "2"}}}, "constants": {"2": 2}}, "name": "tf_op_layer_concat_132", "inbound_nodes": [[["tf_op_layer_concat_131", 0, 0, {}], ["conv_2d_1xS_133", 0, 0, {}]]]}, {"class_name": "Conv2D", "config": {"name": "conv_2d_1xS_134", "trainable": true, "dtype": "float32", "filters": 3, "kernel_size": [1, 1024], "strides": [1, 1], "padding": "valid", "data_format": "channels_last", "dilation_rate": [1, 1], "activation": "relu", "use_bias": true, "kernel_initializer": {"class_name": "GlorotUniform", "config": {"seed": null}}, "bias_initializer": {"class_name": "Constant", "config": {"value": 0.2}}, "kernel_regularizer": null, "bias_regularizer": null, "activity_regularizer": null, "kernel_constraint": null, "bias_constraint": null}, "name": "conv_2d_1xS_134", "inbound_nodes": [[["input_1", 0, 0, {}]]]}, {"class_name": "TensorFlowOpLayer", "config": {"name": "concat_133", "trainable": true, "dtype": "float32", "node_def": {"name": "concat_133", "op": "ConcatV2", "input": ["concat_132", "conv_2d_1xS_134/Identity", "concat_133/axis"], "attr": {"Tidx": {"type": "DT_INT32"}, "T": {"type": "DT_FLOAT"}, "N": {"i": "2"}}}, "constants": {"2": 2}}, "name": "tf_op_layer_concat_133", "inbound_nodes": [[["tf_op_layer_concat_132", 0, 0, {}], ["conv_2d_1xS_134", 0, 0, {}]]]}, {"class_name": "Conv2D", "config": {"name": "conv_2d_1xS_135", "trainable": true, "dtype": "float32", "filters": 3, "kernel_size": [1, 1024], "strides": [1, 1], "padding": "valid", "data_format": "channels_last", "dilation_rate": [1, 1], "activation": "relu", "use_bias": true, "kernel_initializer": {"class_name": "GlorotUniform", "config": {"seed": null}}, "bias_initializer": {"class_name": "Constant", "config": {"value": 0.2}}, "kernel_regularizer": null, "bias_regularizer": null, "activity_regularizer": null, "kernel_constraint": null, "bias_constraint": null}, "name": "conv_2d_1xS_135", "inbound_nodes": [[["input_1", 0, 0, {}]]]}, {"class_name": "TensorFlowOpLayer", "config": {"name": "concat_134", "trainable": true, "dtype": "float32", "node_def": {"name": "concat_134", "op": "ConcatV2", "input": ["concat_133", "conv_2d_1xS_135/Identity", "concat_134/axis"], "attr": {"Tidx": {"type": "DT_INT32"}, "T": {"type": "DT_FLOAT"}, "N": {"i": "2"}}}, "constants": {"2": 2}}, "name": "tf_op_layer_concat_134", "inbound_nodes": [[["tf_op_layer_concat_133", 0, 0, {}], ["conv_2d_1xS_135", 0, 0, {}]]]}, {"class_name": "Conv2D", "config": {"name": "conv_2d_1xS_136", "trainable": true, "dtype": "float32", "filters": 3, "kernel_size": [1, 1024], "strides": [1, 1], "padding": "valid", "data_format": "channels_last", "dilation_rate": [1, 1], "activation": "relu", "use_bias": true, "kernel_initializer": {"class_name": "GlorotUniform", "config": {"seed": null}}, "bias_initializer": {"class_name": "Constant", "config": {"value": 0.2}}, "kernel_regularizer": null, "bias_regularizer":…
rmat": "channels_last", "dilation_rate": [1, 1], "activation": "linear", "use_bias": false, "kernel_initializer": {"class_name": "GlorotUniform", "config": {"seed": null}}, "bias_initializer": {"class_name": "Zeros", "config": {}}, "kernel_regularizer": null, "bias_regularizer": null, "activity_regularizer": null, "kernel_constraint": null, "bias_constraint": null, "depth_multiplier": 1, "depthwise_initializer": {"class_name": "GlorotUniform", "config": {"seed": null}}, "pointwise_initializer": {"class_name": "GlorotUniform", "config": {"seed": null}}, "depthwise_regularizer": null, "pointwise_regularizer": null, "depthwise_constraint": null, "pointwise_constraint": null}, "name": "separable_conv2d_9", "inbound_nodes": [[["activation_10", 0, 0, {}]]]}, {"class_name": "BatchNormalization", "config": {"name": "batch_normalization_14", "trainable": true, "dtype": "float32", "axis": [3], "momentum": 0.99, "epsilon": 0.001, "center": true, "scale": true, "beta_initializer": {"class_name": "Zeros", "config": {}}, "gamma_initializer": {"class_name": "Ones", "config": {}}, "moving_mean_initializer": {"class_name": "Zeros", "config": {}}, "moving_variance_initializer": {"class_name": "Ones", "config": {}}, "beta_regularizer": null, "gamma_regularizer": null, "beta_constraint": null, "gamma_constraint": null}, "name": "batch_normalization_14", "inbound_nodes": [[["separable_conv2d_9", 0, 0, {}]]]}, {"class_name": "Activation", "config": {"name": "activation_11", "trainable": true, "dtype": "float32", "activation": "relu"}, "name": "activation_11", "inbound_nodes": [[["batch_normalization_14", 0, 0, {}]]]}, {"class_name": "SeparableConv2D", "config": {"name": "separable_conv2d_10", "trainable": true, "dtype": "float32", "filters": 728, "kernel_size": [3, 3], "strides": [1, 1], "padding": "same", "data_format": "channels_last", "dilation_rate": [1, 1], "activation": "linear", "use_bias": false, "kernel_initializer": {"class_name": "GlorotUniform", "config": {"seed": null}}, "bias_initializer": {"class_name": "Zeros", "config": {}}, "kernel_regularizer": null, "bias_regularizer": null, "activity_regularizer": null, "kernel_constraint": null, "bias_constraint": null, "depth_multiplier": 1, "depthwise_initializer": {"class_name": "GlorotUniform", "config": {"seed": null}}, "pointwise_initializer": {"class_name": "GlorotUniform", "config": {"seed": null}}, "depthwise_regularizer": null, "pointwise_regularizer": null, "depthwise_constraint": null, "pointwise_constraint": null}, "name": "separable_conv2d_10", "inbound_nodes": [[["activation_11", 0, 0, {}]]]}, {"class_name": "BatchNormalization", "config": {"name": "batch_normalization_15", "trainable": true, "dtype": "float32", "axis": [3], "momentum": 0.99, "epsilon": 0.001, "center": true, "scale": true, "beta_initializer": {"class_name": "Zeros", "config": {}}, "gamma_initializer": {"class_name": "Ones", "config": {}}, "moving_mean_initializer": {"class_name": "Zeros", "config": {}}, "moving_variance_initializer": {"class_name": "Ones", "config": {}}, "beta_regularizer": null, "gamma_regularizer": null, "beta_constraint": null, "gamma_constraint": null}, "name": "batch_normalization_15", "inbound_nodes": [[["separable_conv2d_10", 0, 0, {}]]]}, {"class_name": "Activation", "config": {"name": "activation_12", "trainable": true, "dtype": "float32", "activation": "relu"}, "name": "activation_12", "inbound_nodes": [[["batch_normalization_15", 0, 0, {}]]]}, {"class_name": "SeparableConv2D", "config": {"name": "separable_conv2d_11", "trainable": true, "dtype": "float32", "filters": 728, "kernel_size": [3, 3], "strides": [1, 1], "padding": "same", "data_format": "channels_last", "dilation_rate": [1, 1], "activation": "linear", "use_bias": false, "kernel_initializer": {"class_name": "GlorotUniform", "config": {"seed": null}}, "bias_initializer": {"class_name": "Zeros", "config": {}}, "kernel_regularizer": null, "bias_regularizer": null, "activity_regularizer": null, "kernel_constraint": null, "bias_constraint": null, "depth_multiplier": 1, "depthwise_initializer": {"class_name": "GlorotUniform", "config": {"seed": null}}, "pointwise_initializer": {"class_name": "GlorotUniform", "config": {"seed": null}}, "depthwise_regularizer": null, "pointwise_regularizer": null, "depthwise_constraint": null, "pointwise_constraint": null}, "name": "separable_conv2d_11", "inbound_nodes": [[["activation_12", 0, 0, {}]]]}, {"class_name": "BatchNormalization", "config": {"name": "batch_normalization_16", "trainable": true, "dtype": "float32", "axis": [3], "momentum": 0.99, "epsilon": 0.001, "center": true, "scale": true, "beta_initializer": {"class_name": "Zeros", "config": {}}, "gamma_initializer": {"class_name": "Ones", "config": {}}, "moving_mean_initializer": {"class_name": "Zeros", "config": {}}, "moving_variance_initializer": {"class_name": "Ones", "config": {}}, "beta_regularizer": null, "gamma_regularizer": null, "beta_constraint": null, "gamma_constraint": null}, "name": "batch_normalization_16", "inbound_nodes": [[["separable_conv2d_11", 0, 0, {}]]]}, {"class_name": "Add", "config": {"name": "add_4", "trainable": true, "dtype": "float32"}, "name": "add_4", "inbound_nodes": [[["batch_normalization_16", 0, 0, {}], ["add_3", 0, 0, {}]]]}, {"class_name": "Activation", "config": {"name": "activation_13", "trainable": true, "dtype": "float32", "activation": "relu"}, "name": "activation_13", "inbound_nodes": [[["add_4", 0, 0, {}]]]}, {"class_name": "SeparableConv2D", "config": {"name": "separable_conv2d_12", "trainable": true, "dtype": "float32", "filters": 728, "kernel_size": [3, 3], "strides": [1, 1], "padding": "same", "data_format": "channels_last", "dilation_rate": [1, 1], "activation": "linear", "use_bias": false, "kernel_initializer": {"class_name": "GlorotUniform", "config": {"seed": null}}, "bias_initializer": {"class_name": "Zeros", "config": {}}, "kernel_regularizer": null, "bias_regularizer": null, "activity_regularizer": null, "kernel_constraint": null, "bias_constraint": null, "depth_multiplier": 1, "depthwise_initializer": {"class_name": "GlorotUniform", "config": {"seed": null}}, "pointwise_initializer": {"class_name": "GlorotUniform", "config": {"seed": null}}, "depthwise_regularizer": null, "pointwise_regularizer": null, "depthwise_constraint": null, "pointwise_constraint": null}, "name": "separable_conv2d_12", "inbound_nodes": [[["activation_13", 0, 0, {}]]]}, {"class_name": "BatchNormalization", "config": {"name": "batch_normalization_17", "trainable": true, "dtype": "float32", "axis": [3], "momentum": 0.99, "epsilon": 0.001, "center": true, "scale": true, "beta_initializer": {"class_name": "Zeros", "config": {}}, "gamma_initializer": {"class_name": "Ones", "config": {}}, "moving_mean_initializer": {"class_name": "Zeros", "config": {}}, "moving_variance_initializer": {"class_name": "Ones", "config": {}}, "beta_regularizer": null, "gamma_regularizer": null, "beta_constraint": null, "gamma_constraint": null}, "name": "batch_normalization_17", "inbound_nodes": [[["separable_conv2d_12", 0, 0, {}]]]}, {"class_name": "Activation", "config": {"name": "activation_14", "trainable": true, "dtype": "float32", "activation": "relu"}, "name": "activation_14", "inbound_nodes": [[["batch_normalization_17", 0, 0, {}]]]}, {"class_name": "SeparableConv2D", "config": {"name": "separable_conv2d_13", "trainable": true, "dtype": "float32", "filters": 728, "kernel_size": [3, 3], "strides": [1, 1], "padding": "same", "data_format": "channels_last", "dilation_rate": [1, 1], "activation": "linear", "use_bias": false, "kernel_initializer": {"class_name": "GlorotUniform", "config": {"seed": null}}, "bias_initializer": {"class_name": "Zeros", "config": {}}, "kernel_regularizer": null, "bias_regularizer": null, "activity_regularizer": null, "kernel_constraint": null, "bias_constraint": null, "depth_multiplier": 1, "depthwise_initializer": {"class_name": "GlorotUniform", "config": {"seed": null}}, "pointwise_initializer": {"class_name": "GlorotUniform", "config": {"seed": null}}, "depthwise_regularizer": null, "pointwise_regularizer": null, "depthwise_constraint": null, "pointwise_constraint": null}, "name": "separable_conv2d_13", "inbound_nodes": [[["activation_14", 0, 0, {}]]]}, {"class_name": "BatchNormalization", "config": {"name": "batch_normalization_18", "trainable": true, "dtype": "float32", "axis": [3], "momentum": 0.99, "epsilon": 0.001, "center": true, "scale": true, "beta_initializer": {"class_name": "Zeros", "config": {}}, "gamma_initializer": {"class_name": "Ones", "config": {}}, "moving_mean_initializer": {"class_name": "Zeros", "config": {}}, "moving_variance_initializer": {"class_name": "Ones", "config": {}}, "beta_regularizer": null, "gamma_regularizer": null, "beta_constraint": null, "gamma_constraint": null}, "name": "batch_normalization_18", "inbound_nodes": [[["separable_conv2d_13", 0, 0, {}]]]}, {"class_name": "Activation", "config": {"name": "activation_15", "trainable": true, "dtype": "float32", "activation": "relu"}, "name": "activation_15", "inbound_nodes": [[["batch_normalization_18", 0, 0, {}]]]}, {"class_name": "SeparableConv2D", "config": {"name": "separable_conv2d_14", "trainable": true, "dtype": "float32", "filters": 728, "kernel_size": [3, 3], "strides": [1, 1], "padding": "same", "data_format": "channels_last", "dilation_rate": [1, 1], "activation": "linear", "use_bias": false, "kernel_initializer": {"class_name": "GlorotUniform", "config": {"seed": null}}, "bias_initializer": {"class_name": "Zeros", "config": {}}, "kernel_regularizer": null, "bias_regularizer": null, "activity_regularizer": null, "kernel_constraint": null, "bias_constraint": null, "depth_multiplier": 1, "depthwise_initializer": {"class_name": "GlorotUniform", "config": {"seed": null}}, "pointwise_initializer": {"class_name": "GlorotUniform", "config": {"seed": null}}, "depthwise_regularizer": null, "pointwise_regularizer": null, "depthwise_constraint": null, "pointwise_constraint": null}, "name": "separable_conv2d_14", "inbound_nodes": [[["activation_15", 0, 0, {}]]]}, {"class_name": "BatchNormalization", "config": {"name": "batch_normalization_19", "trainable": true, "dtype": "float32", "axis": [3], "momentum": 0.99, "epsilon": 0.001, "center": true, "scale": true, "beta_initializer": {"class_name": "Zeros", "config": {}}, "gamma_initializer": {"class_name": "Ones", "config": {}}, "moving_mean_initializer": {"class_name": "Zeros", "config": {}}, "moving_variance_initializer": {"class_name": "Ones", "config": {}}, "beta_regularizer": null, "gamma_regularizer": null, "beta_constraint": null, "gamma_constraint": null}, "name": "batch_normalization_19", "inbound_nodes": [[["separable_conv2d_14", 0, 0, {}]]]}, {"class_name": "Add", "config": {"name": "add_5", "trainable": true, "dtype": "float32"}, "name": "add_5", "inbound_nodes": [[["batch_normalization_19", 0, 0, {}], ["add_4", 0, 0, {}]]]}, {"class_name": "Activation", "config": {"name": "activation_16", "trainable": true, "dtype": "float32", "activation": "relu"}, "name": "activation_16", "inbound_nodes": [[["add_5", 0, 0, {}]]]}, {"class_name": "SeparableConv2D", "config": {"name": "separable_conv2d_15", "trainable": true, "dtype": "float32", "filters": 728, "kernel_size": [3, 3], "strides": [1, 1], "padding": "same", "data_format": "channels_last", "dilation_rate": [1, 1], "activation": "linear", "use_bias": false, "kernel_initializer": {"class_name": "GlorotUniform", "config": {"seed": null}}, "bias_initializer": {"class_name": "Zeros", "config": {}}, "kernel_regularizer": null, "bias_regularizer": null, "activity_regularizer": null, "kernel_constraint": null, "bias_constraint": null, "depth_multiplier": 1, "depthwise_initializer": {"class_name": "GlorotUniform", "config": {"seed": null}}, "pointwise_initializer": {"class_name": "GlorotUniform", "config": {"seed": null}}, "depthwise_regularizer": null, "pointwise_regularizer": null, "depthwise_constraint": null, "pointwise_constraint": null}, "name": "separable_conv2d_15", "inbound_nodes": [[["activation_16", 0, 0, {}]]]}, {"class_name": "BatchNormalization", "config": {"name": "batch_normalization_20", "trainable": true, "dtype": "float32", "axis": [3], "momentum": 0.99, "epsilon": 0.001, "center": true, "scale": true, "beta_initializer": {"class_name": "Zeros", "config": {}}, "gamma_initializer": {"class_name": "Ones", "config": {}}, "moving_mean_initializer": {"class_name": "Zeros", "config": {}}, "moving_variance_initializer": {"class_name": "Ones", "config": {}}, "beta_regularizer": null, "gamma_regularizer": null, "beta_constraint": null, "gamma_constraint": null}, "name": "batch_normalization_20", "inbound_nodes": [[["separable_conv2d_15", 0, 0, {}]]]}, {"class_name": "Activation", "config": {"name": "activation_17", "trainable": true, "dtype": "float32", "activation": "relu"}, "name": "activation_17", "inbound_nodes": [[["batch_normalization_20", 0, 0, {}]]]}, {"class_name": "SeparableConv2D", "config": {"name": "separable_conv2d_16", "trainable": true, "dtype": "float32", "filters": 728, "kernel_size": [3, 3], "strides": [1, 1], "padding": "same", "data_format": "channels_last", "dilation_rate": [1, 1], "activation": "linear", "use_bias": false, "kernel_initializer": {"class_name": "GlorotUniform", "config": {"seed": null}}, "bias_initializer": {"class_name": "Zeros", "config": {}}, "kernel_regularizer": null, "bias_regularizer": null, "activity_regularizer": null, "kernel_constraint": null, "bias_constraint": null, "depth_multiplier": 1, "depthwise_initializer": {"class_name": "GlorotUniform", "config": {"seed": null}}, "pointwise_initializer": {"class_name": "GlorotUniform", "config": {"seed": null}}, "depthwise_regularizer": null, "pointwise_regularizer": null, "depthwise_constraint": null, "pointwise_constraint": null}, "name": "separable_conv2d_16", "inbound_nodes": [[["activation_17", 0, 0, {}]]]}, {"class_name": "BatchNormalization", "config": {"name": "batch_normalization_21", "trainable": true, "dtype": "float32", "axis": [3], "momentum": 0.99, "epsilon": 0.001, "center": true, "scale": true, "beta_initializer": {"class_name": "Zeros", "config": {}}, "gamma_initializer": {"class_name": "Ones", "config": {}}, "moving_mean_initializer": {"class_name": "Zeros", "config": {}}, "moving_variance_initializer": {"class_name": "Ones", "config": {}}, "beta_regularizer": null, "gamma_regularizer": null, "beta_constraint": null, "gamma_constraint": null}, "name": "batch_normalization_21", "inbound_nodes": [[["separable_conv2d_16", 0, 0, {}]]]}, {"class_name": "Activation", "config": {"name": "activation_18", "trainable": true, "dtype": "float32", "activation": "relu"}, "name": "activation_18", "inbound_nodes": [[["batch_normalization_21", 0, 0, {}]]]}, {"class_name": "SeparableConv2D", "config": {"name": "separable_conv2d_17", "trainable": true, "dtype": "float32", "filters": 728, "kernel_size": [3, 3], "strides": [1, 1], "padding": "same", "data_format": "channels_last", "dilation_rate": [1, 1], "activation": "linear", "use_bias": false, "kernel_initializer": {"class_name": "GlorotUniform", "config": {"seed": null}}, "bias_initializer": {"class_name": "Zeros", "config": {}}, "kernel_regularizer": null, "bias_regularizer": null, "activity_regularizer": null, "kernel_constraint": null, "bias_constraint": null, "depth_multiplier": 1, "depthwise_initializer": {"class_name": "GlorotUniform", "config": {"seed": null}}, "pointwise_initializer": {"class_name": "GlorotUniform", "config": {"seed": null}}, "depthwise_regularizer": null, "pointwise_regularizer": null, "depthwise_constraint": null, "pointwise_constraint": null}, "name": "separable_conv2d_17", "inbound_nodes": [[["activation_18", 0, 0, {}]]]}, {"class_name": "BatchNormalization", "config": {"name": "batch_normalization_22", "trainable": true, "dtype": "float32", "axis": [3], "momentum": 0.99, "epsilon": 0.001, "center": true, "scale": true, "beta_initializer": {"class_name": "Zeros", "config": {}}, "gamma_initializer": {"class_name": "Ones", "config": {}}, "moving_mean_initializer": {"class_name": "Zeros", "config": {}}, "moving_variance_initializer": {"class_name": "Ones", "config": {}}, "beta_regularizer": null, "gamma_regularizer": null, "beta_constraint": null, "gamma_constraint": null}, "name": "batch_normalization_22", "inbound_nodes": [[["separable_conv2d_17", 0, 0, {}]]]}, {"class_name": "Add", "config": {"name": "add_6", "trainable": true, "dtype": "float32"}, "name": "add_6", "inbound_nodes": [[["batch_normalization_22", 0, 0, {}], ["add_5", 0, 0, {}]]]}, {"class_name": "Activation", "config": {"name": "activation_19", "trainable": true, "dtype": "float32", "activation": "relu"}, "name": "activation_19", "inbound_nodes": [[["add_6", 0, 0, {}]]]}, {"class_name": "SeparableConv2D", "config": {"name": "separable_conv2d_18", "trainable": true, "dtype": "float32", "filters": 728, "kernel_size": [3, 3], "strides": [1, 1], "padding": "same", "data_format": "channels_last", "dilation_rate": [1, 1], "activation": "linear", "use_bias": false, "kernel_initializer": {"class_name": "GlorotUniform", "config": {"seed": null}}, "bias_initializer": {"class_name": "Zeros", "config": {}}, "kernel_regularizer": null, "bias_regularizer": null, "activity_regularizer": null, "kernel_constraint": null, "bias_constraint": null, "depth_multiplier": 1, "depthwise_initializer": {"class_name": "GlorotUniform", "config": {"seed": null}}, "pointwise_initializer": {"class_name": "GlorotUniform", "config": {"seed": null}}, "depthwise_regularizer": null, "pointwise_regularizer": null, "depthwise_constraint": null, "pointwise_constraint": null}, "name": "separable_conv2d_18", "inbound_nodes": [[["activation_19", 0, 0, {}]]]}, {"class_name": "BatchNormalization", "config": {"name": "batch_normalization_23", "trainable": true, "dtype": "float32", "axis": [3], "momentum": 0.99, "epsilon": 0.001, "center": true, "scale": true, "beta_initializer": {"class_name": "Zeros", "config": {}}, "gamma_initializer": {"class_name": "Ones", "config": {}}, "moving_mean_initializer": {"class_name": "Zeros", "config": {}}, "moving_variance_initializer": {"class_name": "Ones", "config": {}}, "beta_regularizer": null, "gamma_regularizer": null, "beta_constraint": null, "gamma_constraint": null}, "name": "batch_normalization_23", "inbound_nodes": [[["separable_conv2d_18", 0, 0, {}]]]}, {"class_name": "Activation", "config": {"name": "activation_20", "trainable": true, "dtype": "float32", "activation": "relu"}, "name": "activation_20", "inbound_nodes": [[["batch_normalization_23", 0, 0, {}]]]}, {"class_name": "SeparableConv2D", "config": {"name": "separable_conv2d_19", "trainable": true, "dtype": "float32", "filters": 728, "kernel_size": [3, 3], "strides": [1, 1], "padding": "same", "data_format": "channels_last", "dilation_rate": [1, 1], "activation": "linear", "use_bias": false, "kernel_initializer": {"class_name": "GlorotUniform", "config": {"seed": null}}, "bias_initializer": {"class_name": "Zeros", "config": {}}, "kernel_regularizer": null, "bias_regularizer": null, "activity_regularizer": null, "kernel_constraint": null, "bias_constraint": null, "depth_multiplier": 1, "depthwise_initializer": {"class_name": "GlorotUniform", "config": {"seed": null}}, "pointwise_initializer": {"class_name": "GlorotUniform", "config": {"seed": null}}, "depthwise_regularizer": null, "pointwise_regularizer": null, "depthwise_constraint": null, "pointwise_constraint": null}, "name": "separable_conv2d_19", "inbound_nodes": [[["activation_20", 0, 0, {}]]]}, {"class_name": "BatchNormalization", "config": {"name": "batch_normalization_24", "trainable": true, "dtype": "float32", "axis": [3], "momentum": 0.99, "epsilon": 0.001, "center": true, "scale": true, "beta_initializer": {"class_name": "Zeros", "config": {}}, "gamma_initializer": {"class_name": "Ones", "config": {}}, "moving_mean_initializer": {"class_name": "Zeros", "config": {}}, "moving_variance_initializer": {"class_name": "Ones", "config": {}}, "beta_regularizer": null, "gamma_regularizer": null, "beta_constraint": null, "gamma_constraint": null}, "name": "batch_normalization_24", "inbound_nodes": [[["separable_conv2d_19", 0, 0, {}]]]}, {"class_name": "Activation", "config": {"name": "activation_21", "trainable": true, "dtype": "float32", "activation": "relu"}, "name": "activation_21", "inbound_nodes": [[["batch_normalization_24", 0, 0, {}]]]}, {"class_name": "SeparableConv2D", "config": {"name": "separable_conv2d_20", "trainable": true, "dtype": "float32", "filters": 728, "kernel_size": [3, 3], "strides": [1, 1], "padding": "same", "data_format": "channels_last", "dilation_rate": [1, 1], "activation": "linear", "use_bias": false, "kernel_initializer": {"class_name": "GlorotUniform", "config": {"seed": null}}, "bias_initializer": {"class_name": "Zeros", "config": {}}, "kernel_regularizer": null, "bias_regularizer": null, "activity_regularizer": null, "kernel_constraint": null, "bias_constraint": null, "depth_multiplier": 1, "depthwise_initializer": {"class_name": "GlorotUniform", "config": {"seed": null}}, "pointwise_initializer": {"class_name": "GlorotUniform", "config": {"seed": null}}, "depthwise_regularizer": null, "pointwise_regularizer": null, "depthwise_constraint": null, "pointwise_constraint": null}, "name": "separable_conv2d_20", "inbound_nodes": [[["activation_21", 0, 0, {}]]]}, {"class_name": "BatchNormalization", "config": {"name": "batch_normalization_25", "trainable": true, "dtype": "float32", "axis": [3], "momentum": 0.99, "epsilon": 0.001, "center": true, "scale": true, "beta_initializer": {"class_name": "Zeros", "config": {}}, "gamma_initializer": {"class_name": "Ones", "config": {}}, "moving_mean_initializer": {"class_name": "Zeros", "config": {}}, "moving_variance_initializer": {"class_name": "Ones", "config": {}}, "beta_regularizer": null, "gamma_regularizer": null, "beta_constraint": null, "gamma_constraint": null}, "name": "batch_normalization_25", "inbound_nodes": [[["separable_conv2d_20", 0, 0, {}]]]}, {"class_name": "Add", "config": {"name": "add_7", "trainable": true, "dtype": "float32"}, "name": "add_7", "inbound_nodes": [[["batch_normalization_25", 0, 0, {}], ["add_6", 0, 0, {}]]]}, {"class_name": "Activation", "config": {"name": "activation_22", "trainable": true, "dtype": "float32", "activation": "relu"}, "name": "activation_22", "inbound_nodes": [[["add_7", 0, 0, {}]]]}, {"class_name": "SeparableConv2D", "config": {"name": "separable_conv2d_21", "trainable": true, "dtype": "float32", "filters": 728, "kernel_size": [3, 3], "strides": [1, 1], "padding": "same", "data_format": "channels_last", "dilation_rate": [1, 1], "activation": "linear", "use_bias": false, "kernel_initializer": {"class_name": "GlorotUniform", "config": {"seed": null}}, "bias_initializer": {"class_name": "Zeros", "config": {}}, "kernel_regularizer": null, "bias_regularizer": null, "activity_regularizer": null, "kernel_constraint": null, "bias_constraint": null, "depth_multiplier": 1, "depthwise_initializer": {"class_name": "GlorotUniform", "config": {"seed": null}}, "pointwise_initializer": {"class_name": "GlorotUniform", "config": {"seed": null}}, "depthwise_regularizer": null, "pointwise_regularizer": null, "depthwise_constraint": null, "pointwise_constraint": null}, "name": "separable_conv2d_21", "inbound_nodes": [[["activation_22", 0, 0, {}]]]}, {"class_name": "BatchNormalization", "config": {"name": "batch_normalization_26", "trainable": true, "dtype": "float32", "axis": [3], "momentum": 0.99, "epsilon": 0.001, "center": true, "scale": true, "beta_initializer": {"class_name": "Zeros", "config": {}}, "gamma_initializer": {"class_name": "Ones", "config": {}}, "moving_mean_initializer": {"class_name": "Zeros", "config": {}}, "moving_variance_initializer": {"class_name": "Ones", "config": {}}, "beta_regularizer": null, "gamma_regularizer": null, "beta_constraint": null, "gamma_constraint": null}, "name": "batch_normalization_26", "inbound_nodes": [[["separable_conv2d_21", 0, 0, {}]]]}, {"class_name": "Activation", "config": {"name": "activation_23", "trainable": true, "dtype": "float32", "activation": "relu"}, "name": "activation_23", "inbound_nodes": [[["batch_normalization_26", 0, 0, {}]]]}, {"class_name": "SeparableConv2D", "config": {"name": "separable_conv2d_22", "trainable": true, "dtype": "float32", "filters": 728, "kernel_size": [3, 3], "strides": [1, 1], "padding": "same", "data_format": "channels_last", "dilation_rate": [1, 1], "activation": "linear", "use_bias": false, "kernel_initializer": {"class_name": "GlorotUniform", "config": {"seed": null}}, "bias_initializer": {"class_name": "Zeros", "config": {}}, "kernel_regularizer": null, "bias_regularizer": null, "activity_regularizer": null, "kernel_constraint": null, "bias_constraint": null, "depth_multiplier": 1, "depthwise_initializer": {"class_name": "GlorotUniform", "config": {"seed": null}}, "pointwise_initializer": {"class_name": "GlorotUniform", "config": {"seed": null}}, "depthwise_regularizer": null, "pointwise_regularizer": null, "depthwise_constraint": null, "pointwise_constraint": null}, "name": "separable_conv2d_22", "inbound_nodes": [[["activation_23", 0, 0, {}]]]}, {"class_name": "BatchNormalization", "config": {"name": "batch_normalization_27", "trainable": true, "dtype": "float32", "axis": [3], "momentum": 0.99, "epsilon": 0.001, "center": true, "scale": true, "beta_initializer": {"class_name": "Zeros", "config": {}}, "gamma_initializer": {"class_name": "Ones", "config": {}}, "moving_mean_initializer": {"class_name": "Zeros", "config": {}}, "moving_variance_initializer": {"class_name": "Ones", "config": {}}, "beta_regularizer": null, "gamma_regularizer": null, "beta_constraint": null, "gamma_constraint": null}, "name": "batch_normalization_27", "inbound_nodes": [[["separable_conv2d_22", 0, 0, {}]]]}, {"class_name": "Activation", "config": {"name": "activation_24", "trainable": true, "dtype": "float32", "activation": "relu"}, "name": "activation_24", "inbound_nodes": [[["batch_normalization_27", 0, 0, {}]]]}, {"class_name": "SeparableConv2D", "config": {"name": "separable_conv2d_23", "trainable": true, "dtype": "float32", "filters": 728, "kernel_size": [3, 3], "strides": [1, 1], "padding": "same", "data_format": "channels_last", "dilation_rate": [1, 1], "activation": "linear", "use_bias": false, "kernel_initializer": {"class_name": "GlorotUniform", "config": {"seed": null}}, "bias_initializer": {"class_name": "Zeros", "config": {}}, "kernel_regularizer": null, "bias_regularizer": null, "activity_regularizer": null, "kernel_constraint": null, "bias_constraint": null, "depth_multiplier": 1, "depthwise_initializer": {"class_name": "GlorotUniform", "config": {"seed": null}}, "pointwise_initializer": {"class_name": "GlorotUniform", "config": {"seed": null}}, "depthwise_regularizer": null, "pointwise_regularizer": null, "depthwise_constraint": null, "pointwise_constraint": null}, "name": "separable_conv2d_23", "inbound_nodes": [[["activation_24", 0, 0, {}]]]}, {"class_name": "BatchNormalization", "config": {"name": "batch_normalization_28", "trainable": true, "dtype": "float32", "axis": [3], "momentum": 0.99, "epsilon": 0.001, "center": true, "scale": true, "beta_initializer": {"class_name": "Zeros", "config": {}}, "gamma_initializer": {"class_name": "Ones", "config": {}}, "moving_mean_initializer": {"class_name": "Zeros", "config": {}}, "moving_variance_initializer": {"class_name": "Ones", "config": {}}, "beta_regularizer": null, "gamma_regularizer": null, "beta_constraint": null, "gamma_constraint": null}, "name": "batch_normalization_28", "inbound_nodes": [[["separable_conv2d_23", 0, 0, {}]]]}, {"class_name": "Add", "config": {"name": "add_8", "trainable": true, "dtype": "float32"}, "name": "add_8", "inbound_nodes": [[["batch_normalization_28", 0, 0, {}], ["add_7", 0, 0, {}]]]}, {"class_name": "Activation", "config": {"name": "activation_25", "trainable": true, "dtype": "float32", "activation": "relu"}, "name": "activation_25", "inbound_nodes": [[["add_8", 0, 0, {}]]]}, {"class_name": "SeparableConv2D", "config": {"name": "separable_conv2d_24", "trainable": true, "dtype": "float32", "filters": 728, "kernel_size": [3, 3], "strides": [1, 1], "padding": "same", "data_format": "channels_last", "dilation_rate": [1, 1], "activation": "linear", "use_bias": false, "kernel_initializer": {"class_name": "GlorotUniform", "config": {"seed": null}}, "bias_initializer": {"class_name": "Zeros", "config": {}}, "kernel_regularizer": null, "bias_regularizer": null, "activity_regularizer": null, "kernel_constraint": null, "bias_constraint": null, "depth_multiplier": 1, "depthwise_initializer": {"class_name": "GlorotUniform", "config": {"seed": null}}, "pointwise_initializer": {"class_name": "GlorotUniform", "config": {"seed": null}}, "depthwise_regularizer": null, "pointwise_regularizer": null, "depthwise_constraint": null, "pointwise_constraint": null}, "name": "separable_conv2d_24", "inbound_nodes": [[["activation_25", 0, 0, {}]]]}, {"class_name": "BatchNormalization", "config": {"name": "batch_normalization_29", "trainable": true, "dtype": "float32", "axis": [3], "momentum": 0.99, "epsilon": 0.001, "center": true, "scale": true, "beta_initializer": {"class_name": "Zeros", "config": {}}, "gamma_initializer": {"class_name": "Ones", "config": {}}, "moving_mean_initializer": {"class_name": "Zeros", "config": {}}, "moving_variance_initializer": {"class_name": "Ones", "config": {}}, "beta_regularizer": null, "gamma_regularizer": null, "beta_constraint": null, "gamma_constraint": null}, "name": "batch_normalization_29", "inbound_nodes": [[["separable_conv2d_24", 0, 0, {}]]]}, {"class_name": "Activation", "config": {"name": "activation_26", "trainable": true, "dtype": "float32", "activation": "relu"}, "name": "activation_26", "inbound_nodes": [[["batch_normalization_29", 0, 0, {}]]]}, {"class_name": "SeparableConv2D", "config": {"name": "separable_conv2d_25", "trainable": true, "dtype": "float32", "filters": 728, "kernel_size": [3, 3], "strides": [1, 1], "padding": "same", "data_format": "channels_last", "dilation_rate": [1, 1], "activation": "linear", "use_bias": false, "kernel_initializer": {"class_name": "GlorotUniform", "config": {"seed": null}}, "bias_initializer": {"class_name": "Zeros", "config": {}}, "kernel_regularizer": null, "bias_regularizer": null, "activity_regularizer": null, "kernel_constraint": null, "bias_constraint": null, "depth_multiplier": 1, "depthwise_initializer": {"class_name": "GlorotUniform", "config": {"seed": null}}, "pointwise_initializer": {"class_name": "GlorotUniform", "config": {"seed": null}}, "depthwise_regularizer": null, "pointwise_regularizer": null, "depthwise_constraint": null, "pointwise_constraint": null}, "name": "separable_conv2d_25", "inbound_nodes": [[["activation_26", 0, 0, {}]]]}, {"class_name": "BatchNormalization", "config": {"name": "batch_normalization_30", "trainable": true, "dtype": "float32", "axis": [3], "momentum": 0.99, "epsilon": 0.001, "center": true, "scale": true, "beta_initializer": {"class_name": "Zeros", "config": {}}, "gamma_initializer": {"class_name": "Ones", "config": {}}, "moving_mean_initializer": {"class_name": "Zeros", "config": {}}, "moving_variance_initializer": {"class_name": "Ones", "config": {}}, "beta_regularizer": null, "gamma_regularizer": null, "beta_constraint": null, "gamma_constraint": null}, "name": "batch_normalization_30", "inbound_nodes": [[["separable_conv2d_25", 0, 0, {}]]]}, {"class_name": "Activation", "config": {"name": "activation_27", "trainable": true, "dtype": "float32", "activation": "relu"}, "name": "activation_27", "inbound_nodes": [[["batch_normalization_30", 0, 0, {}]]]}, {"class_name": "SeparableConv2D", "config": {"name": "separable_conv2d_26", "trainable": true, "dtype": "float32", "filters": 728, "kernel_size": [3, 3], "strides": [1, 1], "padding": "same", "data_format": "channels_last", "dilation_rate": [1, 1], "activation": "linear", "use_bias": false, "kernel_initializer": {"class_name": "GlorotUniform", "config": {"seed": null}}, "bias_initializer": {"class_name": "Zeros", "config": {}}, "kernel_regularizer": null, "bias_regularizer": null, "activity_regularizer": null, "kernel_constraint": null, "bias_constraint": null, "depth_multiplier": 1, "depthwise_initializer": {"class_name": "GlorotUniform", "config": {"seed": null}}, "pointwise_initializer": {"class_name": "GlorotUniform", "config": {"seed": null}}, "depthwise_regularizer": null, "pointwise_regularizer": null, "depthwise_constraint": null, "pointwise_constraint": null}, "name": "separable_conv2d_26", "inbound_nodes": [[["activation_27", 0, 0, {}]]]}, {"class_name": "BatchNormalization", "config": {"name": "batch_normalization_31", "trainable": true, "dtype": "float32", "axis": [3], "momentum": 0.99, "epsilon": 0.001, "center": true, "scale": true, "beta_initializer": {"class_name": "Zeros", "config": {}}, "gamma_initializer": {"class_name": "Ones", "config": {}}, "moving_mean_initializer": {"class_name": "Zeros", "config": {}}, "moving_variance_initializer": {"class_name": "Ones", "config": {}}, "beta_regularizer": null, "gamma_regularizer": null, "beta_constraint": null, "gamma_constraint": null}, "name": "batch_normalization_31", "inbound_nodes": [[["separable_conv2d_26", 0, 0, {}]]]}, {"class_name": "Add", "config": {"name": "add_9", "trainable": true, "dtype": "float32"}, "name": "add_9", "inbound_nodes": [[["batch_normalization_31", 0, 0, {}], ["add_8", 0, 0, {}]]]}, {"class_name": "Activation", "config": {"name": "activation_28", "trainable": true, "dtype": "float32", "activation": "relu"}, "name": "activation_28", "inbound_nodes": [[["add_9", 0, 0, {}]]]}, {"class_name": "SeparableConv2D", "config": {"name": "separable_conv2d_27", "trainable": true, "dtype": "float32", "filters": 728, "kernel_size": [3, 3], "strides": [1, 1], "padding": "same", "data_format": "channels_last", "dilation_rate": [1, 1], "activation": "linear", "use_bias": false, "kernel_initializer": {"class_name": "GlorotUniform", "config": {"seed": null}}, "bias_initializer": {"class_name": "Zeros", "config": {}}, "kernel_regularizer": null, "bias_regularizer": null, "activity_regularizer": null, "kernel_constraint": null, "bias_constraint": null, "depth_multiplier": 1, "depthwise_initializer": {"class_name": "GlorotUniform", "config": {"seed": null}}, "pointwise_initializer": {"class_name": "GlorotUniform", "config": {"seed": null}}, "depthwise_regularizer": null, "pointwise_regularizer": null, "depthwise_constraint": null, "pointwise_constraint": null}, "name": "separable_conv2d_27", "inbound_nodes": [[["activation_28", 0, 0, {}]]]}, {"class_name": "BatchNormalization", "config": {"name": "batch_normalization_32", "trainable": true, "dtype": "float32", "axis": [3], "momentum": 0.99, "epsilon": 0.001, "center": true, "scale": true, "beta_initializer": {"class_name": "Zeros", "config": {}}, "gamma_initializer": {"class_name": "Ones", "config": {}}, "moving_mean_initializer": {"class_name": "Zeros", "config": {}}, "moving_variance_initializer": {"class_name": "Ones", "config": {}}, "beta_regularizer": null, "gamma_regularizer": null, "beta_constraint": null, "gamma_constraint": null}, "name": "batch_normalization_32", "inbound_nodes": [[["separable_conv2d_27", 0, 0, {}]]]}, {"class_name": "Activation", "config": {"name": "activation_29", "trainable": true, "dtype": "float32", "activation": "relu"}, "name": "activation_29", "inbound_nodes": [[["batch_normalization_32", 0, 0, {}]]]}, {"class_name": "SeparableConv2D", "config": {"name": "separable_conv2d_28", "trainable": true, "dtype": "float32", "filters": 728, "kernel_size": [3, 3], "strides": [1, 1], "padding": "same", "data_format": "channels_last", "dilation_rate": [1, 1], "activation": "linear", "use_bias": false, "kernel_initializer": {"class_name": "GlorotUniform", "config": {"seed": null}}, "bias_initializer": {"class_name": "Zeros", "config": {}}, "kernel_regularizer": null, "bias_regularizer": null, "activity_regularizer": null, "kernel_constraint": null, "bias_constraint": null, "depth_multiplier": 1, "depthwise_initializer": {"class_name": "GlorotUniform", "config": {"seed": null}}, "pointwise_initializer": {"class_name": "GlorotUniform", "config": {"seed": null}}, "depthwise_regularizer": null, "pointwise_regularizer": null, "depthwise_constraint": null, "pointwise_constraint": null}, "name": "separable_conv2d_28", "inbound_nodes": [[["activation_29", 0, 0, {}]]]}, {"class_name": "BatchNormalization", "config": {"name": "batch_normalization_33", "trainable": true, "dtype": "float32", "axis": [3], "momentum": 0.99, "epsilon": 0.001, "center": true, "scale": true, "beta_initializer": {"class_name": "Zeros", "config": {}}, "gamma_initializer": {"class_name": "Ones", "config": {}}, "moving_mean_initializer": {"class_name": "Zeros", "config": {}}, "moving_variance_initializer": {"class_name": "Ones", "config": {}}, "beta_regularizer": null, "gamma_regularizer": null, "beta_constraint": null, "gamma_constraint": null}, "name": "batch_normalization_33", "inbound_nodes": [[["separable_conv2d_28", 0, 0, {}]]]}, {"class_name": "Activation", "config": {"name": "activation_30", "trainable": true, "dtype": "float32", "activation": "relu"}, "name": "activation_30", "inbound_nodes": [[["batch_normalization_33", 0, 0, {}]]]}, {"class_name": "SeparableConv2D", "config": {"name": "separable_conv2d_29", "trainable": true, "dtype": "float32", "filters": 728, "kernel_size": [3, 3], "strides": [1, 1], "padding": "same", "data_format": "channels_last", "dilation_rate": [1, 1], "activation": "linear", "use_bias": false, "kernel_initializer": {"class_name": "GlorotUniform", "config": {"seed": null}}, "bias_initializer": {"class_name": "Zeros", "config": {}}, "kernel_regularizer": null, "bias_regularizer": null, "activity_regularizer": null, "kernel_constraint": null, "bias_constraint": null, "depth_multiplier": 1, "depthwise_initializer": {"class_name": "GlorotUniform", "config": {"seed": null}}, "pointwise_initializer": {"class_name": "GlorotUniform", "config": {"seed": null}}, "depthwise_regularizer": null, "pointwise_regularizer": null, "depthwise_constraint": null, "pointwise_constraint": null}, "name": "separable_conv2d_29", "inbound_nodes": [[["activation_30", 0, 0, {}]]]}, {"class_name": "BatchNormalization", "config": {"name": "batch_normalization_34", "trainable": true, "dtype": "float32", "axis": [3], "momentum": 0.99, "epsilon": 0.001, "center": true, "scale": true, "beta_initializer": {"class_name": "Zeros", "config": {}}, "gamma_initializer": {"class_name": "Ones", "config": {}}, "moving_mean_initializer": {"class_name": "Zeros", "config": {}}, "moving_variance_initializer": {"class_name": "Ones", "config": {}}, "beta_regularizer": null, "gamma_regularizer": null, "beta_constraint": null, "gamma_constraint": null}, "name": "batch_normalization_34", "inbound_nodes": [[["separable_conv2d_29", 0, 0, {}]]]}, {"class_name": "Add", "config": {"name": "add_10", "trainable": true, "dtype": "float32"}, "name": "add_10", "inbound_nodes": [[["batch_normalization_34", 0, 0, {}], ["add_9", 0, 0, {}]]]}, {"class_name": "Activation", "config": {"name": "activation_31", "trainable": true, "dtype": "float32", "activation": "relu"}, "name": "activation_31", "inbound_nodes": [[["add_10", 0, 0, {}]]]}, {"class_name": "SeparableConv2D", "config": {"name": "separable_conv2d_30", "trainable": true, "dtype": "float32", "filters": 728, "kernel_size": [3, 3], "strides": [1, 1], "padding": "same", "data_format": "channels_last", "dilation_rate": [1, 1], "activation": "linear", "use_bias": false, "kernel_initializer": {"class_name": "GlorotUniform", "config": {"seed": null}}, "bias_initializer": {"class_name": "Zeros", "config": {}}, "kernel_regularizer": null, "bias_regularizer": null, "activity_regularizer": null, "kernel_constraint": null, "bias_constraint": null, "depth_multiplier": 1, "depthwise_initializer": {"class_name": "GlorotUniform", "config": {"seed": null}}, "pointwise_initializer": {"class_name": "GlorotUniform", "config": {"seed": null}}, "depthwise_regularizer": null, "pointwise_regularizer": null, "depthwise_constraint": null, "pointwise_constraint": null}, "name": "separable_conv2d_30", "inbound_nodes": [[["activation_31", 0, 0, {}]]]}, {"class_name": "BatchNormalization", "config": {"name": "batch_normalization_36", "trainable": true, "dtype": "float32", "axis": [3], "momentum": 0.99, "epsilon": 0.001, "center": true, "scale": true, "beta_initializer": {"class_name": "Zeros", "config": {}}, "gamma_initializer": {"class_name": "Ones", "config": {}}, "moving_mean_initializer": {"class_name": "Zeros", "config": {}}, "moving_variance_initializer": {"class_name": "Ones", "config": {}}, "beta_regularizer": null, "gamma_regularizer": null, "beta_constraint": null, "gamma_constraint": null}, "name": "batch_normalization_36", "inbound_nodes": [[["separable_conv2d_30", 0, 0, {}]]]}, {"class_name": "Activation", "config": {"name": "activation_32", "trainable": true, "dtype": "float32", "activation": "relu"}, "name": "activation_32", "inbound_nodes": [[["batch_normalization_36", 0, 0, {}]]]}, {"class_name": "SeparableConv2D", "config": {"name": "separable_conv2d_31", "trainable": true, "dtype": "float32", "filters": 1024, "kernel_size": [3, 3], "strides": [1, 1], "padding": "same", "data_format": "channels_last", "dilation_rate": [1, 1], "activation": "linear", "use_bias": false, "kernel_initializer": {"class_name": "GlorotUniform", "config": {"seed": null}}, "bias_initializer": {"class_name": "Zeros", "config": {}}, "kernel_regularizer": null, "bias_regularizer": null, "activity_regularizer": null, "kernel_constraint": null, "bias_constraint": null, "depth_multiplier": 1, "depthwise_initializer": {"class_name": "GlorotUniform", "config": {"seed": null}}, "pointwise_initializer": {"class_name": "GlorotUniform", "config": {"seed": null}}, "depthwise_regularizer": null, "pointwise_regularizer": null, "depthwise_constraint": null, "pointwise_constraint": null}, "name": "separable_conv2d_31", "inbound_nodes": [[["activation_32", 0, 0, {}]]]}, {"class_name": "BatchNormalization", "config": {"name": "batch_normalization_37", "trainable": true, "dtype": "float32", "axis": [3], "momentum": 0.99, "epsilon": 0.001, "center": true, "scale": true, "beta_initializer": {"class_name": "Zeros", "config": {}}, "gamma_initializer": {"class_name": "Ones", "config": {}}, "moving_mean_initializer": {"class_name": "Zeros", "config": {}}, "moving_variance_initializer": {"class_name": "Ones", "config": {}}, "beta_regularizer": null, "gamma_regularizer": null, "beta_constraint": null, "gamma_constraint": null}, "name": "batch_normalization_37", "inbound_nodes": [[["separable_conv2d_31", 0, 0, {}]]]}, {"class_name": "Conv2D", "config": {"name": "conv2d_5", "trainable": true, "dtype": "float32", "filters": 1024, "kernel_size": [1, 1], "strides": [2, 2], "padding": "same", "data_format": "channels_last", "dilation_rate": [1, 1], "activation": "linear", "use_bias": false, "kernel_initializer": {"class_name": "GlorotUniform", "config": {"seed": null}}, "bias_initializer": {"class_name": "Zeros", "config": {}}, "kernel_regularizer": null, "bias_regularizer": null, "activity_regularizer": null, "kernel_constraint": null, "bias_constraint": null}, "name": "conv2d_5", "inbound_nodes": [[["add_10", 0, 0, {}]]]}, {"class_name": "MaxPooling2D", "config": {"name": "max_pooling2d_3", "trainable": true, "dtype": "float32", "pool_size": [3, 3], "padding": "same", "strides": [2, 2], "data_format": "channels_last"}, "name": "max_pooling2d_3", "inbound_nodes": [[["batch_normalization_37", 0, 0, {}]]]}, {"class_name": "BatchNormalization", "config": {"name": "batch_normalization_35", "trainable": true, "dtype": "float32", "axis": [3], "momentum": 0.99, "epsilon": 0.001, "center": true, "scale": true, "beta_initializer": {"class_name": "Zeros", "config": {}}, "gamma_initializer": {"class_name": "Ones", "config": {}}, "moving_mean_initializer": {"class_name": "Zeros", "config": {}}, "moving_variance_initializer": {"class_name": "Ones", "config": {}}, "beta_regularizer": null, "gamma_regularizer": null, "beta_constraint": null, "gamma_constraint": null}, "name": "batch_normalization_35", "inbound_nodes": [[["conv2d_5", 0, 0, {}]]]}, {"class_name": "Add", "config": {"name": "add_11", "trainable": true, "dtype": "float32"}, "name": "add_11", "inbound_nodes": [[["max_pooling2d_3", 0, 0, {}], ["batch_normalization_35", 0, 0, {}]]]}, {"class_name": "SeparableConv2D", "config": {"name": "separable_conv2d_32", "trainable": true, "dtype": "float32", "filters": 1536, "kernel_size": [3, 3], "strides": [1, 1], "padding": "same", "data_format": "channels_last", "dilation_rate": [1, 1], "activation": "linear", "use_bias": false, "kernel_initializer": {"class_name": "GlorotUniform", "config": {"seed": null}}, "bias_initializer": {"class_name": "Zeros", "config": {}}, "kernel_regularizer": null, "bias_regularizer": null, "activity_regularizer": null, "kernel_constraint": null, "bias_constraint": null, "depth_multiplier": 1, "depthwise_initializer": {"class_name": "GlorotUniform", "config": {"seed": null}}, "pointwise_initializer": {"class_name": "GlorotUniform", "config": {"seed": null}}, "depthwise_regularizer": null, "pointwise_regularizer": null, "depthwise_constraint": null, "pointwise_constraint": null}, "name": "separable_conv2d_32", "inbound_nodes": [[["add_11", 0, 0, {}]]]}, {"class_name": "BatchNormalization", "config": {"name": "batch_normalization_38", "trainable": true, "dtype": "float32", "axis": [3], "momentum": 0.99, "epsilon": 0.001, "center": true, "scale": true, "beta_initializer": {"class_name": "Zeros", "config": {}}, "gamma_initializer": {"class_name": "Ones", "config": {}}, "moving_mean_initializer": {"class_name": "Zeros", "config": {}}, "moving_variance_initializer": {"class_name": "Ones", "config": {}}, "beta_regularizer": null, "gamma_regularizer": null, "beta_constraint": null, "gamma_constraint": null}, "name": "batch_normalization_38", "inbound_nodes": [[["separable_conv2d_32", 0, 0, {}]]]}, {"class_name": "Activation", "config": {"name": "activation_33", "trainable": true, "dtype": "float32", "activation": "relu"}, "name": "activation_33", "inbound_nodes": [[["batch_normalization_38", 0, 0, {}]]]}, {"class_name": "SeparableConv2D", "config": {"name": "separable_conv2d_33", "trainable": true, "dtype": "float32", "filters": 2048, "kernel_size": [3, 3], "strides": [1, 1], "padding": "same", "data_format": "channels_last", "dilation_rate": [1, 1], "activation": "linear", "use_bias": false, "kernel_initializer": {"class_name": "GlorotUniform", "config": {"seed": null}}, "bias_initializer": {"class_name": "Zeros", "config": {}}, "kernel_regularizer": null, "bias_regularizer": null, "activity_regularizer": null, "kernel_constraint": null, "bias_constraint": null, "depth_multiplier": 1, "depthwise_initializer": {"class_name": "GlorotUniform", "config": {"seed": null}}, "pointwise_initializer": {"class_name": "GlorotUniform", "config": {"seed": null}}, "depthwise_regularizer": null, "pointwise_regularizer": null, "depthwise_constraint": null, "pointwise_constraint": null}, "name": "separable_conv2d_33", "inbound_nodes": [[["activation_33", 0, 0, {}]]]}, {"class_name": "BatchNormalization", "config": {"name": "batch_normalization_39", "trainable": true, "dtype": "float32", "axis": [3], "momentum": 0.99, "epsilon": 0.001, "center": true, "scale": true, "beta_initializer": {"class_name": "Zeros", "config": {}}, "gamma_initializer": {"class_name": "Ones", "config": {}}, "moving_mean_initializer": {"class_name": "Zeros", "config": {}}, "moving_variance_initializer": {"class_name": "Ones", "config": {}}, "beta_regularizer": null, "gamma_regularizer": null, "beta_constraint": null, "gamma_constraint": null}, "name": "batch_normalization_39", "inbound_nodes": [[["separable_conv2d_33", 0, 0, {}]]]}, {"class_name": "Activation", "config": {"name": "activation_34", "trainable": true, "dtype": "float32", "activation": "relu"}, "name": "activation_34", "inbound_nodes": [[["batch_normalization_39", 0, 0, {}]]]}, {"class_name": "GlobalAveragePooling2D", "config": {"name": "global_average_pooling2d", "trainable": true, "dtype": "float32", "data_format": "channels_last"}, "name": "global_average_pooling2d", "inbound_nodes": [[["activation_34", 0, 0, {}]]]}, {"class_name": "Dense", "config": {"name": "dense_386_start_h0", "trainable": true, "dtype": "float32", "units": 386, "activation": "linear", "use_bias": true, "kernel_initializer": {"class_name": "GlorotUniform", "config": {"seed": null}}, "bias_initializer": {"class_name": "Zeros", "config": {}}, "kernel_regularizer": null, "bias_regularizer": null, "activity_regularizer": null, "kernel_constraint": null, "bias_constraint": null}, "name": "dense_386_start_h0", "inbound_nodes": [[["global_average_pooling2d", 0, 0, {}]]]}, {"class_name": "Dense", "config": {"name": "dense_386_end_h1", "trainable": true, "dtype": "float32", "units": 386, "activation": "linear", "use_bias": true, "kernel_initializer": {"class_name": "GlorotUniform", "config": {"seed": null}}, "bias_initializer": {"class_name": "Zeros", "config": {}}, "kernel_regularizer": null, "bias_regularizer": null, "activity_regularizer": null, "kernel_constraint": null, "bias_constraint": null}, "name": "dense_386_end_h1", "inbound_nodes": [[["global_average_pooling2d", 0, 0, {}]]]}, {"class_name": "Activation", "config": {"name": "start", "trainable": true, "dtype": "float32", "activation": "softmax"}, "name": "start", "inbound_nodes": [[["dense_386_start_h0", 0, 0, {}]]]}, {"class_name": "Activation", "config": {"name": "end", "trainable": true, "dtype": "float32", "activation": "softmax"}, "name": "end", "inbound_nodes": [[["dense_386_end_h1", 0, 0, {}]]]}], "input_layers": [["input_1", 0, 0]], "output_layers": [["start", 0, 0], ["end", 0, 0]]}, "keras_version": "2.3.0-tf", "backend": "tensorflow"}